Assets/Trained Models/Economy-500700.onnx (onnx, 78377 bytes, 11 tensors)

action_model._discrete_distribution.branches.0.bias f4 [2]
000000 98 54 2f bc df 58 2f 3c
       -0.010701321 0.010702341

action_model._discrete_distribution.branches.0.weight f4 [2, 128]
000000 5c 1c e7 3b a3 28 66 bb cc a4 3d bb a3 85 88 bc
       0.0070529412 -0.0035119436 -0.0028937338 -0.016665285
000010 6e d3 9a bc 98 ff 09 3c 78 df 0f 3c 52 3e b2 bb
       -0.018899646 0.008422755 0.008781306 -0.005439558
000020 6b a7 99 bb 60 52 2f ba 4b 86 dd 3b 17 cd 3f 3b
       -0.004689147 -0.0006687995 0.0067603937 0.002926653
000030 e4 27 e6 bb 2e 47 e4 3a 47 d3 59 bc 3e 52 a4 bb
       -0.0070237983 0.0017416233 -0.013295001 -0.005014687
000040 95 f2 4f bb 33 8a 3f bc 23 dd 93 bc 8e 02 cb bc
       -0.0031730284 -0.011690664 -0.018049782 -0.024781492
000050 87 7b 97 bb 9b 3e 08 bc f0 06 69 39 22 8d 08 bb
       -0.00462288 -0.008315708 0.00022223196 -0.0020836075
000060 ae 78 4c 3b 0f 66 74 3c 8c 17 b2 3a b5 90 c5 bb
       0.003119986 0.014916911 0.001358734 -0.0060292133
000070 29 8b 27 3c 7a b7 46 bc 43 82 54 bc eb ee 4c 3b
       0.010226049 -0.012128705 -0.01297051 0.0031270336
000080 a4 70 3a bb 36 eb c3 bb e9 9e fc bb f5 2c a8 bc
       -0.0028448487 -0.005978967 -0.0077093733 -0.02052925
000090 e4 67 77 bc e3 4a 7a 3c 60 1c b0 3b 8c 6a b4 3c
       -0.015100453 0.015276643 0.0053744763 0.022023462
0000a0 0f 66 92 3c 8b f5 3f bc 98 77 b8 bc 9b 26 b4 bb
       0.017870931 -0.011716257 -0.022517964 -0.005497766
0000b0 74 1c 0a bc 31 8a b7 bb 7b 93 f5 ba 66 2a d1 bb
       -0.008429635 -0.0056011905 -0.0018735969 -0.006383228
0000c0 75 c4 f0 3a 5f 2a 68 3c 06 d8 b9 ba 6b fb 4b 3a
       0.0018369096 0.014170258 -0.001417876 0.00077812996
0000d0 22 52 07 bc b6 a3 b2 3b 83 a7 31 bc 57 58 2b 3b
       -0.008259328 0.005451645 -0.010843161 0.0026145184
0000e0 e8 c5 88 bc d9 89 9a bc e5 75 9f bc c6 b0 66 bc
       -0.016695932 -0.018864559 -0.019465396 -0.014080232
0000f0 db 4c 17 bd 6a 92 57 ba 1e 31 29 bc 0b 7a 1f bc
       -0.03693853 -0.00082234165 -0.010326652 -0.009733687
000100 97 5f 24 bc d1 42 74 3b fb cc 2b 3c 1f b9 a2 3b
       -0.010032556 0.003727127 0.010485883 0.004965916
000110 48 18 90 ba b2 6e 4a bc e6 af 49 3c 3f de 58 bc
       -0.0010993565 -0.012355493 0.012310004 -0.013236581
000120 34 cc e4 3b ba 6f 08 bd 6c 41 23 3c 3f 0f 45 bb
       0.0069823507 -0.033309676 0.009964328 -0.0030068902
000130 a9 e1 c2 3b 7b 0d 6a bc 43 43 b5 3b ab 70 d2 bb
       0.005947311 -0.014285441 0.0055317 -0.0064221225
000140 10 01 22 bd 47 b8 96 bb f3 f3 0c bc f1 7f 93 bb
       -0.039551795 -0.0045996043 -0.008603084 -0.004501336
000150 e9 c1 b5 bb de 66 80 bc 07 07 9e 3c 85 80 75 3b
       -0.0055467975 -0.01567405 0.01929046 0.0037460637
000160 fe 9d 4a 3d e6 bc 7e 3c 75 c0 d2 b9 e9 cf 20 bc
       0.04946708 0.015547967 -0.00040197713 -0.009815195
000170 0a e2 58 bc c1 2d 00 3c 63 f5 75 bb b3 b7 9c ba
       -0.013237486 0.007823409 -0.0037530295 -0.0011956602
000180 ca 8f ab 3b e9 3a 13 bc c3 fe 68 bc 99 be 45 bc
       0.005235647 -0.008986213 -0.014220896 -0.012069368
000190 8e a4 10 bc a7 aa 6d bb 17 f5 65 b8 5c 51 10 3c
       -0.008828295 -0.0036265047 -5.4826112e-05 0.00880846
0001a0 4a 77 92 bb 5c c2 d7 39 dc db fc ba 0e f0 a6 bc
       -0.004469787 0.00041152805 -0.0019291597 -0.020378139
0001b0 e7 41 13 3c 49 d5 31 bd 80 36 04 bc 64 c6 bf 3c
       0.00898788 -0.043416295 -0.008069634 0.02341003
0001c0 6b cc 25 bc 1a 79 1c 3c e8 09 99 bb 87 68 ca b6
       -0.010119538 0.009550357 -0.0046703704 -6.0322377e-06
0001d0 8a fa e0 bc da 3a a6 bc e5 bc 80 bb 08 8c 52 3c
       -0.027463216 -0.020291734 -0.003928768 0.012850769
0001e0 4c 19 bf 3b f1 e5 16 3c 07 7f d9 bc 87 1b 43 bc
       0.005831873 0.009210096 -0.02654983 -0.0119084185
0001f0 63 e4 ee 3a 92 d6 ed 3b 4c bf 1b bb 83 01 08 3c
       0.0018226024 0.007258245 -0.0023765145 0.008301142
000200 59 56 b2 3b 76 d1 18 bc 2c a3 7c 3c 2b 4a f9 3b
       0.0054424223 -0.009327283 0.015419763 0.0076077185
000210 ef 45 8f 3c 57 0e a7 3a 4c 4d 3c bc ff a8 67 ba
       0.017489402 0.0012745362 -0.011493038 -0.0008837133
000220 64 05 9a bb dc fe 84 3c b1 91 8b bc 19 70 15 bc
       -0.0047003496 0.016234808 -0.017037245 -0.009120964
000230 f6 71 97 b9 bd 92 a3 bb a7 d6 33 3c d5 d7 fb bb
       -0.00028885872 -0.004991858 0.01097647 -0.0076856413
000240 8e 3e ad 3b 9f e8 d1 bb 88 88 bf bb 22 42 24 3d
       0.005286998 -0.0064059044 -0.005845133 0.04010213
000250 9d 7a 14 3c d3 a8 ad 3b 5b 5d ab 3c 7d 5d ae 3b
       0.009062436 0.0052996664 0.020918539 0.0053212033
000260 2b ff c4 3b d0 8f 2e bb 85 e1 dd 3b da c9 13 3c
       0.0060118637 -0.0026636012 0.006771269 0.009020293
000270 cb b6 1f bc 37 b8 91 bb 65 6f 17 bb 7d 31 cd bb
       -0.009748171 -0.004447009 -0.0023107168 -0.006262003
000280 d2 29 e8 3a ae 1c e7 3b 99 0a 0b b7 4e 2a c9 3c
       0.0017712659 0.0070529794 -8.287513e-06 0.024556305
000290 85 34 c0 3c 99 92 a1 bc 71 f1 26 3a 84 e0 8d bc
       0.023462543 -0.019723224 0.0006368375 -0.017318971
0002a0 ae 52 1d bd e2 e3 04 3c 61 06 6f 3c 7b 8b 3b bb
       -0.038408928 0.008110972 0.014588923 -0.0028617072
0002b0 11 cd 81 3c 34 20 c4 3b 4a 7c 5b 3c bd 9e 05 3c
       0.015844854 0.005985284 0.013396332 0.008155522
0002c0 7f a3 65 3b ed b2 68 bc 25 d2 0c 3b b0 91 91 3c
       0.0035040078 -0.0142028155 0.002148756 0.017769665
0002d0 92 00 be ba ad fd 1a 39 c2 02 80 bb 50 27 2e 3c
       -0.001449602 0.00014781086 -0.0039065788 0.01062949
0002e0 43 e9 d0 3b 47 9e 71 3c f3 f1 a2 ba b8 e5 ad 3c
       0.006375463 0.014747209 -0.0012431726 0.021227702
0002f0 f9 5c b0 3c be e1 10 3c c6 64 10 3c d1 f0 12 3c
       0.021528708 0.008842884 0.008813089 0.008968548
000300 0d e0 4f 3b 47 74 90 bc c8 17 2f 3c 9f d5 a4 ba
       0.0031719238 -0.01763357 0.010686822 -0.0012575871
000310 09 04 46 3c cb 5b cd bc 3a f7 c8 bb 0a 29 be bb
       0.012085923 -0.025068184 -0.0061329873 -0.005803232
000320 f8 ea 82 3a 0c a4 75 3c 59 ae e5 bb e0 02 6e 3c
       0.0009988239 0.014992725 -0.0070093093 0.014527053
000330 02 64 02 bc f2 3e d9 ba 43 7a 6d ba e3 7d 14 bc
       -0.007958414 -0.0016574545 -0.0009059051 -0.009063217
000340 4f b7 2d 3d b6 7b 53 bc ca 8b c9 3b 52 1c c1 3b
       0.042411145 -0.012907913 0.0061506974 0.0058932686
000350 b1 ca b7 bb 5b 95 b7 bb 73 c6 bf 3a f1 99 a7 3c
       -0.0056088795 -0.0056025214 0.0014631286 0.020459147
000360 e2 a7 03 bd 62 98 d5 bb 98 5e f7 3c 80 76 54 bb
       -0.032142527 -0.0065184096 0.030196473 -0.0032419264
000370 d8 3e 81 ba ba 62 df 39 8e 0b 88 ba 89 6e 29 3c
       -0.0009860648 0.00042607432 -0.001037942 0.010341295
000380 59 9a c8 3c 78 b8 d0 bb ef b0 a1 3a a5 f8 9a 3b
       0.024487661 -0.0063696466 0.0012336056 0.004729348
000390 57 4f 23 3b db cf 18 3c aa f6 4d 3b e9 7d ae 3b
       0.0024919116 0.0093269 0.003142754 0.0053250683
0003a0 93 f2 b6 3c 5a 38 bc 3b 10 fd 56 bc ea 47 14 3b
       0.022332465 0.0057440223 -0.013121858 0.0022625872
0003b0 c7 22 25 3c 11 ba 12 3d 2d 76 b1 bb 22 a5 a0 bc
       0.010079092 0.035821978 -0.005415699 -0.019609991
0003c0 d4 d7 4e bc ee f1 72 3b 40 14 b1 bb 89 61 08 3c
       -0.0126247 0.003707047 -0.0054040253 0.008324035
0003d0 ef b4 4c 3d 63 8c 07 3d b3 e8 36 3c 05 59 6f 3c
       0.04997724 0.033092868 0.011163878 0.014608626
0003e0 20 13 16 3c ec 5f 8c bb b5 36 6c 3c 79 41 37 bb
       0.009159833 -0.0042838957 0.01441734 -0.0027962609
0003f0 18 fc 53 3b 92 20 34 3a 38 db 16 3c 4d 74 e1 3b
       0.0032346305 0.00068713084 0.009207539 0.006880319

action_model._discrete_distribution.branches.1.bias f4 [2]
000000 ca d7 de bc ba b8 de 3c
       -0.027202506 0.027187694

action_model._discrete_distribution.branches.1.weight f4 [2, 128]
000000 8e 77 a8 bb b9 6b 31 3c b2 2f 02 3d af 7a 4e bb
       -0.005141205 0.010828906 0.031783767 -0.003150623
000010 d4 c1 ee bb 66 83 60 bc e7 9d 29 bc b9 35 bc ba
       -0.0072862897 -0.013703203 -0.010352588 -0.0014359272
000020 c2 ec 51 bd f5 cd 15 bc b7 1e d2 bb 4f 68 b2 3c
       -0.05125118 -0.009143342 -0.006412353 0.021778254
000030 5c 3c fe bc c0 fd 6b ba d0 9e 6a 3b de e7 13 bb
       -0.031034641 -0.000900235 0.0035800226 -0.0022568624
000040 3a 50 e6 bb 55 d5 2b 39 14 0c 86 3b 8c f6 41 3d
       -0.0070286067 0.00016387303 0.0040907953 0.047354266
000050 7c 00 ac bb 4d a9 4e bd 27 8f 82 bb 7c e6 aa 3c
       -0.005249081 -0.050454427 -0.0039843502 0.020861857
000060 aa 1a 79 3c b2 54 71 bb 5f 20 43 3c 2b 96 1d bb
       0.015204111 -0.0036824164 0.011909573 -0.0024045806
000070 36 b1 de bb e7 42 94 bb e2 3a 89 bb 75 54 35 3b
       -0.0067960275 -0.004524577 -0.0041879276 0.0027668749
000080 bb d2 39 b8 9b fe a8 3b f3 c4 35 3b 91 c0 e6 bc
       -4.4303695e-05 0.0051573045 0.00277358 -0.028167995
000090 dc 7a 95 3c 80 8f 92 3b 9f f2 1d 3b e6 17 06 3d
       0.01824706 0.004472673 0.0024100912 0.032737635
0000a0 d6 fa c0 3c 6c bb a7 3b ef a6 04 bd d3 a6 96 bc
       0.023557108 0.005118778 -0.032385763 -0.018390095
0000b0 56 92 f7 bc c4 06 5f bd 4f 18 c2 3b 2b 29 2e bd
       -0.030221146 -0.05444981 0.005923308 -0.04251973
0000c0 90 17 9c bb 68 0b 61 ba fc cb 19 bd 19 d9 31 bc
       -0.004763551 -0.00085847685 -0.03754805 -0.010854983
0000d0 77 11 fb ba d6 06 a9 3b b9 80 13 bd ba 53 09 bc
       -0.0019154985 0.0051582856 -0.03601143 -0.008381778
0000e0 e7 fc 54 3b c1 b1 40 3d 12 61 2f bd 1b 8f 5c 3d
       0.0032499374 0.04704452 -0.042817183 0.053847414
0000f0 1e d2 62 3d 9e c6 17 bd 7b 98 86 3c c4 27 b1 bc
       0.055376165 -0.03705465 0.01643013 -0.021625407
000100 0b 60 09 bc 08 d7 d2 3c 56 a4 70 bd 27 dd 8f bc
       -0.008384715 0.0257373 -0.058750473 -0.017561508
000110 6e 68 12 bc 0a 0c a6 ba 43 cc d7 bb 69 40 86 bd
       -0.008936031 -0.0012668383 -0.006585629 -0.06555254
000120 be 11 16 3d 07 6b 88 3d f0 0d 30 3d dd b3 ee bb
       0.036638014 0.06661039 0.04298204 -0.007284625
000130 fe 07 1f 3c 5c 2a c0 ba 51 6b 41 3b 6a 17 1f 3d
       0.009706495 -0.0014661062 0.0029513428 0.03884069
000140 a1 21 e5 bc 12 eb e0 bc ff c6 b4 ba 7a 32 63 bb
       -0.027970137 -0.02745584 -0.0013792216 -0.0034667538
000150 24 70 4c bc 1c a9 19 ba 6d e6 82 3c 00 68 e4 3b
       -0.012477908 -0.0005861686 0.015979016 0.0069704056
000160 13 a1 d3 3b 44 f7 47 bb e5 9e 2e bd 34 78 1c 3c
       0.0064584105 -0.0030512372 -0.042632002 0.009550143
000170 cf 5c 2a 3b 96 49 b5 3b 7d c8 79 3b fa 31 ac bc
       0.002599526 0.005532454 0.0038113885 -0.021019924
000180 a6 04 12 3c 44 44 ed bc 43 0d f1 3c 46 fc 80 bd
       0.008912241 -0.028963216 0.029425269 -0.06298117
000190 09 a8 76 3c f6 2b 73 bc 17 aa 92 b8 2c 4c c1 ba
       0.015054711 -0.014842024 -6.993504e-05 -0.0014747432
0001a0 45 c0 20 bb 5b da 07 bb 46 37 88 3c d0 9e 47 3c
       -0.0024528664 -0.0020729515 0.016627919 0.01218386
0001b0 2f a8 c3 bb 14 68 a4 3b 4b 2f 5c bd 5c 07 9d 3d
       -0.005970977 0.00501729 -0.05375604 0.07667419
0001c0 8a cd 3a bb b6 46 16 3a c8 77 b7 bc ac e4 17 b8
       -0.0028503858 0.00057325826 -0.022395983 -3.6214173e-05
0001d0 34 bd c5 ba bf 8f 4a 3a e3 1a 90 bc 47 b5 0e 3c
       -0.0015086294 0.00077271083 -0.017590946 0.008710212
0001e0 be c4 75 3b 10 78 6f 3c 4f 5f 9f bc 7d 3d 1e bb
       0.00375013 0.0146160275 -0.019454626 -0.0024145537
0001f0 45 c7 19 3b 96 9f 8d 3a 07 f5 5a 3c e8 fa 07 3c
       0.002346472 0.0010805007 0.013364083 0.008299567
000200 55 87 26 bb 55 c3 cf bb 89 01 f9 bc a0 38 4e 3b
       -0.0025410254 -0.006340424 -0.03039624 0.0031466857
000210 d0 b6 13 3c 60 bc 25 ba f4 65 e7 bb 60 dd c8 bb
       0.009015754 -0.00063223206 -0.0070617143 -0.0061299056
000220 b5 e4 00 3d 48 fa 54 3b 06 c0 d5 3b 05 da 39 3b
       0.031468112 0.0032497812 0.006523135 0.002835871
000230 fa 57 4e 3d f0 c0 54 bc 60 bf 09 bc 19 d4 40 bb
       0.05037687 -0.012985453 -0.008407444 -0.0029423295
000240 b9 ac 10 3c cd c1 6d 3c e1 1d 9e 3b f0 96 07 bd
       0.008830243 0.014511538 0.004825339 -0.03310293
000250 b5 aa 50 bb bb fa 38 3d 3e 2c 20 bb 8c 15 3c bc
       -0.003184003 0.04516099 -0.0024440433 -0.011479747
000260 24 61 08 3c a7 bd 70 bc 36 1f 75 3c c5 cd c4 3b
       0.008323941 -0.014693654 0.014961055 0.006005975
000270 4a 25 27 bc ca e4 ce bb 3b 66 44 3b 5f 82 13 3c
       -0.0102017615 -0.006313895 0.002996816 0.009003251
000280 23 2f 53 3a 26 a6 1e 3b d2 10 86 b9 47 dd 94 3c
       0.0008056035 0.002420792 -0.00025571004 0.01817192
000290 76 ff b9 bb 92 8a 66 bc f4 92 85 3b f5 58 34 bd
       -0.0056762053 -0.014071124 0.004076356 -0.04403015
0002a0 7c 4b 0b bd b7 cd 1f bc cc d9 c6 3c 63 87 b1 bb
       -0.034007534 -0.009753636 0.024273776 -0.0054177507
0002b0 bd 01 e1 3c 1b a9 82 3d b6 27 18 3b ff 1d 2f 3d
       0.02746665 0.063799106 0.002321703 0.042753216
0002c0 67 f6 f7 3c 44 f7 00 3c 1f 46 2b 3d 3d c2 d2 bb
       0.030268861 0.007871453 0.04181492 -0.0064318464
0002d0 49 1c 86 3c 6a b4 4b bb 3a 76 db 3c 56 a3 b9 ba
       0.01637091 -0.0031082877 0.026789773 -0.0014163058
0002e0 05 f3 05 3c 64 e1 39 bd 88 e0 51 3d a4 31 23 bd
       0.008175616 -0.045380965 0.05123952 -0.039842263
0002f0 30 74 5d bd 24 51 af 3c d1 4d d3 3b a2 71 26 3d
       -0.054065883 0.021400996 0.0064484854 0.040635712
000300 ca 70 0c 3c 32 ce 1f bd ab 32 15 3d c3 0a 23 bc
       0.008571813 -0.039015003 0.036425274 -0.009951296
000310 fd 38 0a bb 53 07 5a bc 84 f5 61 3c d0 32 8d 3d
       -0.0021091097 -0.01330741 0.013791446 0.06894457
000320 26 92 25 bd b7 35 9c bd 75 71 3a bd ea 9c 6e bb
       -0.04042258 -0.07627433 -0.045518357 -0.0036409446
000330 2f 07 98 3c 90 5c 3f 39 e8 93 d1 ba 2f 84 0a bd
       0.018558113 0.00018249662 -0.0015989514 -0.033817466
000340 ad 9e c8 3c 0d 69 eb 3c 48 4f 81 3b 7b a5 77 bb
       0.024489725 0.028736616 0.0039462186 -0.0037787843
000350 99 ab fd 3a ea f0 44 3b a2 28 f5 3a 93 d4 2b 3c
       0.0019353508 0.0030050823 0.0018704126 0.010487693
000360 7b f9 87 3b 39 26 93 bb 90 24 45 3d 98 16 56 ba
       0.0041496134 -0.0044906405 0.04813057 -0.0008166819
000370 4b b9 05 3b 71 fc c7 3c ce c8 3f 3c d6 f8 e7 3c
       0.0020404633 0.024412366 0.01170559 0.028316896
000380 4e 86 73 bb d5 58 44 3d 61 0d 0e bd 30 91 17 3d
       -0.003715891 0.04793628 -0.034680728 0.037003696
000390 d9 7e a7 3b 2e 2d a6 3c d9 8b 05 bb 1b 8e 37 ba
       0.005111557 0.020285215 -0.0020377545 -0.00070020714
0003a0 c2 15 86 bc 7e 11 bf bc bd be ad bc a2 86 06 bc
       -0.016367797 -0.02332377 -0.021209115 -0.00821081
0003b0 af 1d b8 3c 16 67 ae bc 6b cf dc 3c eb d4 99 bd
       0.022475092 -0.02128939 0.026954373 -0.07511314
0003c0 02 4c 6a bb 53 34 db 3a d0 58 19 3d 93 a7 99 3b
       -0.003575087 0.0016723968 0.037438214 0.004689166
0003d0 aa c3 4a ba fc 75 13 3c aa a5 db 3b 94 c8 02 3c
       -0.00077348447 0.009000298 0.0067030983 0.007982392
0003e0 33 73 10 3c aa 4b 4f bb d9 f7 17 3a 2f c8 26 3c
       0.008816528 -0.0031630793 0.0005797125 0.010179563
0003f0 6f ce 23 bc 9e aa 9b bb 84 fd 15 bb 80 15 04 bc
       -0.009997948 -0.0047505638 -0.0022886703 -0.008061767

action_model._discrete_distribution.branches.2.bias f4 [2]
000000 92 c1 9c bc fd c1 9c 3c
       -0.01913527 0.01913547

action_model._discrete_distribution.branches.2.weight f4 [2, 128]
000000 27 58 13 ba bb 67 88 b8 25 6c 96 3c 4b a5 e3 3b
       -0.00056207407 -6.504307e-05 0.018362114 0.0069471947
000010 e1 a1 a3 bc c1 fb e2 bb 3e de d5 3a fd 63 46 ba
       -0.01997465 -0.006926984 0.0016316844 -0.0007568
000020 0c d7 1b bd cc c4 73 bc f3 65 c5 3b 47 4a b2 3a
       -0.03804688 -0.014878463 0.006024116 0.0013602459
000030 fc c5 05 bd 91 6e 34 bb eb ee 8e bb 4f 22 b1 39
       -0.032659516 -0.0027531723 -0.0043619773 0.00033785633
000040 22 e1 05 bb c7 44 81 bc e8 9a 11 3b 76 8e ef 3c
       -0.002042838 -0.015779866 0.0022217575 0.029242735
000050 e0 86 07 3c 59 3e 0e bd 22 48 32 bc 1d b4 2b 3c
       0.008271903 -0.034727428 -0.010881456 0.010479954
000060 30 b3 bd bb d9 82 be bb f4 10 b0 ba 82 13 1f bb
       -0.005789183 -0.005813938 -0.0013432787 -0.0024273102
000070 6a 23 a8 3b ab 27 19 bb 4d e1 41 39 ba a4 96 bb
       0.005131175 -0.0023369591 0.00018489845 -0.0045972737
000080 33 da ef 3b 8c 47 11 bc ba 5c 8e bc e7 28 24 bd
       0.0073197125 -0.008867156 -0.0173782 -0.04007807
000090 ae 0e 59 bc 50 4e 1f bb c8 42 0f 3b f9 7a ce 3b
       -0.013248129 -0.0024308152 0.0021859873 0.0063012806
0000a0 da e9 1c 3c b7 fb 0b bc be e8 45 bd ca cb e6 bc
       0.009577239 -0.0085439 -0.048317663 -0.028173346
0000b0 9d 31 bd bc 98 77 3d bd 07 aa 21 bc a3 54 2d bd
       -0.023094947 -0.04625663 -0.009867198 -0.042317044
0000c0 41 67 8b bb 88 96 93 bb aa 28 ce bc b1 d2 f8 bb
       -0.004254252 -0.0045040287 -0.025165875 -0.0075934757
0000d0 8b d3 b2 b8 a7 26 df 3b 9e 5a 06 bd 35 50 93 3b
       -8.5271044e-05 0.0068100276 -0.032801263 0.0044956454
0000e0 f3 26 01 bd d2 70 cb 3c dc f6 e0 bc 42 fa 62 bc
       -0.031531285 0.02483407 -0.027461462 -0.013853611
0000f0 d2 08 f6 3b 83 e8 ab bc 22 84 9d bb 01 bf 38 bd
       0.0075083757 -0.020984894 -0.004807011 -0.04510403
000100 93 f2 2d 3c 76 70 4d 3c bb 79 b9 bc 34 07 7b 3c
       0.010616916 0.01253902 -0.022641053 0.015321542
000110 01 83 ab 3c 52 d3 17 bc a8 03 d9 3b 14 5b 49 bd
       0.020936491 -0.009266691 0.0066227503 -0.049159124
000120 ea 67 38 bc 40 24 42 3c 2a 58 9c 3c 4a b5 03 bc
       -0.011255244 0.011849463 0.019085009 -0.008038828
000130 ba 0b c3 bb 4e cb 48 ba 46 62 17 ba c6 0c c5 3a
       -0.0059523256 -0.0007659689 -0.0005774837 0.0015033714
000140 e6 e4 b7 bc da cf 90 3b 35 90 86 bc 3b 80 e5 3c
       -0.022448014 0.004419309 -0.016426185 0.028015247
000150 d7 4d e1 3b 24 f0 23 3c 82 5c 77 bc 86 98 1b 3b
       0.0068757343 0.010005984 -0.015097739 0.0023742034
000160 b4 22 09 bd 35 ec 23 3c 20 43 63 bd bb 44 a2 b9
       -0.03348036 0.010005047 -0.055483937 -0.00030950256
000170 24 f2 44 bb 78 4b 06 bd 34 93 f5 ba 69 9e e8 bc
       -0.0030051554 -0.032786816 -0.0018735887 -0.028395848
000180 30 c8 b6 bb 05 ed ee bc 47 9b 2a 3c a6 9d 44 bd
       -0.0055780634 -0.029165754 0.010412998 -0.048001908
000190 6f a7 01 bc 69 9a f2 b9 44 5f a2 3b 71 f8 47 bc
       -0.007913454 -0.0004627288 0.004955204 -0.012205229
0001a0 2a 5e 7f 3b 99 6d d9 bc 14 3b ab 3a e7 31 8c bc
       0.0038966038 -0.026541518 0.0013063871 -0.017113639
0001b0 c3 9a 14 3b d7 58 d5 3b 01 df 4f bd 2d 22 8b bc
       0.0022675253 0.0065108347 -0.050749782 -0.01698407
0001c0 53 66 a4 39 0d c7 41 bb 41 e5 28 bc b1 c8 a9 bc
       0.00031356755 -0.0029568106 -0.010308565 -0.02072558
0001d0 61 fe bd bb 04 20 e4 bc b0 78 39 3b b0 f5 8b ba
       -0.0057981466 -0.027847297 0.0028300695 -0.0010678079
0001e0 0d bd 3f 3b 37 29 a1 bc db 4f b2 bc fb df 6b bc
       0.002925697 -0.019672973 -0.021766594 -0.014396663
0001f0 42 48 75 3b 5a e5 14 bd 15 f7 d0 bb 97 78 08 bc
       0.0037427102 -0.03635154 -0.0063771107 -0.008329532
000200 a8 fb 69 3b 3a 84 d6 bb 7f 7e d8 bb 4a f5 07 ba
       0.0035702977 -0.0065465244 -0.0066068764 -0.0005186392
000210 11 7c 1f 3d b0 f8 00 3d c9 f2 da 3a 93 7d 06 bb
       0.03893668 0.031487167 0.0016704436 -0.0020521625
000220 b1 9b 1d 3d e5 c2 92 3c 62 09 e3 3b d4 cb 88 bb
       0.038478557 0.017915199 0.0069286088 -0.004174689
000230 70 70 ba 3c 1c 3d 63 ba db 82 61 bb ee 29 00 3c
       0.022758693 -0.0008668469 -0.0034410271 0.007822497
000240 2f 8e 82 3c 52 c8 24 3c 05 cc bb bb 5b 85 b2 bb
       0.015936939 0.010057526 -0.005731108 -0.005448026
000250 ae ca ab bb f5 ca 92 3c 25 39 c8 3b cc 4a 8f ba
       -0.005242667 0.017919043 0.006110328 -0.0010932325
000260 31 f0 19 bb b5 fa 7f ba a2 f1 7d 3b 26 9d 1e 3c
       -0.0023489113 -0.0009764836 0.003874876 0.009681022
000270 bd 68 7b 3b bd 3a 7f bc bd f6 47 bb 54 02 6c bc
       0.003836199 -0.015577969 -0.0030512058 -0.014404852
000280 cd 9c bf bb bf 6c 50 3b 97 e2 53 bb 8c 01 83 3d
       -0.0058475495 0.00318031 -0.0032331103 0.063967794
000290 da 9a 0b 3d ee 68 09 3b 67 ab 3b 3a 79 56 8b bc
       0.034083225 0.0020967084 0.0007159025 -0.017009007
0002a0 cf f0 71 bb 1e 7e 16 3b ac 69 4f 3d 02 bc a3 3c
       -0.0036917215 0.0022963355 0.050637886 0.01998711
0002b0 d3 b4 58 3c f4 2d 34 3d ad 1e 7d 3c e5 60 45 3d
       0.013226706 0.043989137 0.015449208 0.04818811
0002c0 8e 7b 8a bc cc fc 88 3a c7 b1 d3 3c ad 02 83 bc
       -0.016904619 0.0010451316 0.025841607 -0.015992487
0002d0 95 83 d1 3b 7a 90 95 bb bc fd 14 3d 1d 24 90 bb
       0.0063938596 -0.004564342 0.036374792 -0.0043988363
0002e0 2c 60 19 3d 81 3a b6 bc 1b 29 b0 3c fb 90 d6 b9
       0.037445232 -0.022244694 0.021503976 -0.0004092528
0002f0 d0 9c 80 bc 30 64 34 3a da ff 62 3b d4 8b 4d 3d
       -0.015699774 0.0006881384 0.0034637363 0.05018218
000300 07 da 8e 3a 97 7c c7 bc ec dc 08 3c 4a 27 ee 39
       0.0010898717 -0.024351401 0.008353453 0.0004542417
000310 6f 9b 60 bc e4 32 0d 3c 3e db 06 bc 2f 4b 0b 3d
       -0.013708933 0.00861809 -0.008230982 0.034007248
000320 d6 90 59 3c 62 85 e8 bc 1d 3d fe bb 37 56 19 3d
       0.0132791605 -0.028383914 -0.00775875 0.037435737
000330 a2 7a 2d bc 97 f9 96 3c e2 da 42 3c 97 72 ef 3b
       -0.01058832 0.01842956 0.011893006 0.0073073613
000340 18 83 8a 3c 6f 8a a5 ba 3f 0f f0 3b 69 51 b0 bc
       0.016908213 -0.0012629757 0.007326036 -0.021523194
000350 3d 7e 19 3c 18 39 82 3a 0f 1e 86 3b ab 4e b3 3a
       0.009368476 0.0009935228 0.0040929387 0.0013680061
000360 87 c4 40 3d 97 e8 27 bc d8 3c 1d 3d 3d 61 98 bb
       0.047062423 -0.010248325 0.038388103 -0.0046502636
000370 df ad d6 3b 07 d4 0e 3c b6 b2 d3 bb 56 8d de 3c
       0.006551489 0.008717543 -0.006460513 0.027167004
000380 60 9c 8a 3a 19 b9 10 3d af c1 23 bc e5 e2 39 3d
       0.0010575168 0.035332773 -0.009994908 0.0453824
000390 48 6e 78 3c 12 42 12 bc 85 da 67 bb 8d c6 1f 3c
       0.015163012 -0.008926885 -0.003537805 0.009751928
0003a0 a5 22 82 3b 6e 19 02 3b 12 48 22 bc e2 55 3e 3c
       0.003971415 0.0019851583 -0.009904878 0.011617156
0003b0 95 8b fa 3a bd 2b b6 3b 1f d6 0d 3d ce ae 4a 3b
       0.0019115085 0.005559413 0.03462803 0.0030926946
0003c0 ec 9c 41 3c b0 31 d4 bb f5 40 c1 3c c9 fe a5 3b
       0.011817198 -0.00647565 0.023590544 0.005065773
0003d0 9e a8 e9 ba 22 04 93 3c e1 9d 5c 38 36 6e 1b ba
       -0.0017826741 0.017946307 5.2599124e-05 -0.00059292035
0003e0 d1 66 dd ba 0e 2d 03 bb 9e b5 d5 3c bf 0b 24 3b
       -0.0016891604 -0.0020015868 0.026087578 0.0025031415
0003f0 56 15 9e bb 9e cc ec 3c 6d a2 4e bc 47 19 af bb
       -0.004824321 0.028906163 -0.0126119675 -0.0053435895

discrete_action_output_shape f4 [1, 3]
000000 00 00 00 40 00 00 00 40 00 00 00 40
       2.0 2.0 2.0

network_body._body_endoder.seq_layers.0.bias f4 [128]
000000 7b 05 d3 bc 00 00 00 00 47 53 77 3d 00 00 00 00
       -0.02575945 0.0 0.060382154 0.0
000010 28 87 71 3c c5 43 16 3b 9a b8 4d bd ac af 9e bc
       0.014741696 0.0022928577 -0.050224878 -0.019370876
000020 2d c9 fb bc b6 2c 11 bd 00 00 00 00 75 bb 0b 3c
       -0.030735577 -0.03544303 0.0 0.00852858
000030 1a 44 88 3d 00 00 00 00 34 31 e3 ba 48 7d 7b bd
       0.06653614 0.0 -0.0017333389 -0.061398774
000040 2e 73 cc bb f1 76 b1 bc c8 7f 0a 3d 67 30 aa 3b
       -0.0062393164 -0.021663161 0.033813268 0.0051937583
000050 52 75 71 bd d3 a0 6e bd 8b 71 84 3d 54 5e 82 bd
       -0.058949776 -0.058258843 0.06466969 -0.06365648
000060 22 b0 ac 3c c8 85 70 3b 7f db a5 8b 63 04 b6 18
       0.02108008 0.0036700834 -6.388595e-32 4.7050327e-24
000070 2b b2 88 3d 94 c7 04 bd 94 0e 12 3d e5 0d c3 bc
       0.06674608 -0.032416895 0.035658434 -0.023810336
000080 7f 17 44 bd c0 19 3c 3c c3 c2 87 1d 23 57 9a bb
       -0.04787397 0.011480749 3.593558e-21 -0.0047100945
000090 e8 86 2b 96 fd 75 38 3d 26 c8 7a bc e8 55 8d bc
       -1.3855839e-25 0.045034397 -0.015306508 -0.017252877
0000a0 9f 1b 9a bb b7 27 a0 3c de 80 9c 3b 38 17 35 3c
       -0.0047029997 0.019550188 0.0047761044 0.011052899
0000b0 43 ba 09 3c c5 a6 a5 bb 14 7b 08 3d 18 7c 06 3b
       0.008406225 -0.005055281 0.0333205 0.0020520743
0000c0 be c4 e0 3c fa ef 08 bd 89 4d 03 3d 69 70 26 bd
       0.027437564 -0.033431984 0.032056365 -0.040634546
0000d0 f5 72 03 24 75 54 b8 a0 68 37 90 bd 7b 95 10 35
       2.850347e-17 -3.1226701e-19 -0.07041818 5.3861703e-07
0000e0 00 00 00 00 e1 38 5d 3a 00 00 00 00 1a 02 cd bc
       0.0 0.00084389566 0.0 -0.025025416
0000f0 c2 79 bd ba 0a 77 04 3c 95 cb c3 3b 90 f6 d4 b3
       -0.0014455842 0.008085022 0.0059751966 -9.916869e-08
000100 05 9b e5 3b ae 7e 51 3d b4 1f 45 3c 15 82 16 bd
       0.007007005 0.0511462 0.012031484 -0.03674515
000110 58 c0 34 bc 83 95 50 3c b1 66 1b 2e b7 ae c6 3a
       -0.011032186 0.012730959 3.5334128e-11 0.001515827
000120 ef 21 00 bd 9a 41 e1 bb be 51 57 3d b0 69 1f 3c
       -0.03128236 -0.0068742754 0.05256819 0.009729788
000130 13 6b 12 bc a4 b2 62 3c 5e d9 6e 3c 43 02 0c 17
       -0.008936661 0.013836537 0.014578192 4.5239294e-25
000140 15 cf 13 3a cb ca 3b bb 00 00 00 00 04 43 e5 bc
       0.00056384626 -0.002865481 0.0 -0.027986057
000150 70 e0 87 3c fe a4 40 3b a1 60 5a 3c 12 ef d0 bc
       0.016586512 0.0029395218 0.013328702 -0.025504623
000160 00 00 00 00 09 f0 d0 3c ab 34 91 3d 3c 38 ee bc
       0.0 0.025505083 0.07090124 -0.029079549
000170 1d bb 97 bc 00 00 00 00 a9 27 05 bc a1 70 14 bc
       -0.01852184 0.0 -0.0081271315 -0.009060056
000180 b5 2f 85 3c 07 9c 5d 3b 00 00 00 00 02 cc 7a 3c
       0.0162581 0.0033814923 0.0 0.015307428
000190 ed 5f af bc 49 e3 5c bc b5 1b 5c bd 89 4f 98 18
       -0.021408046 -0.013481923 -0.05373736 3.937139e-24
0001a0 ed 98 45 bc 2c 10 15 3c ea b7 5f bb af 78 5f 25
       -0.012060386 0.009098094 -0.003413672 1.9383056e-16
0001b0 b9 42 68 93 f8 5a 3e ba 23 ce c1 bb e0 76 e1 b8
       -2.9315414e-27 -0.000726148 -0.005914466 -0.00010750978
0001c0 e1 ee 90 bc 60 47 ab 3c 7c db 49 bd 61 02 e6 bc
       -0.017692031 0.020908058 -0.049281582 -0.028077306
0001d0 05 5e 06 bc 90 43 8e bd cd 14 8b 3c 1a e4 8b 3d
       -0.008201127 -0.0694648 0.016977692 0.06830616
0001e0 90 c7 35 bb 33 1f 3a bd 71 c0 07 3c af b1 37 bd
       -0.0027737357 -0.04543991 0.008285628 -0.044847187
0001f0 78 36 7a bc e7 ed 10 bd fb e9 47 b7 f3 41 f0 ad
       -0.015271775 -0.03538313 -1.1915802e-05 -2.7314128e-11

network_body._body_endoder.seq_layers.0.weight f4 [128, 10]
000000 91 66 22 3e 4d 39 20 3e 66 b8 c3 be 0b 53 0f be
       0.15859438 0.15646859 -0.38226622 -0.13996522
000010 96 c9 d1 3c 83 38 a2 3e f3 44 b7 be e2 ec 4d be
       0.025608819 0.3168374 -0.35794792 -0.20109895
000020 38 f5 05 3f ee 09 1c be 99 a2 cf 3b 22 be b2 be
       0.523273 -0.15238163 0.006336522 -0.34910685
000030 d4 ee 68 be e6 aa 93 be b8 a4 73 3e 85 52 c4 3e
       -0.22747356 -0.28841323 0.23793304 0.38344207
000040 bc a2 07 3f eb b6 a8 3d a2 a0 15 3c 26 04 3b 3e
       0.5298269 0.08238014 0.009132536 0.18263301
000050 cb 3c 57 3e a1 79 db bd 59 0f 68 be 6b af 2f 3e
       0.21019284 -0.10716558 -0.22662105 0.1715676
000060 a9 a2 0e bf be 90 a3 3c bf 85 c3 bd 30 55 66 be
       -0.5571695 0.01996648 -0.095469944 -0.22493434
000070 e5 6f ab 3d 67 a9 51 3d 65 0b 0c bf f9 8d 5f be
       0.083709516 0.051186945 -0.54704887 -0.21831502
000080 44 1b 9d 3d ad f7 43 be 29 78 06 3f 7a d6 45 bf
       0.07671216 -0.1913745 0.525271 -0.7728039
000090 da 9b b5 be 10 de f9 be 19 f9 0a 3f b4 2a 0b be
       -0.35470468 -0.48802233 0.5428634 -0.13590509
0000a0 fa 41 ba be c6 12 86 bc 83 44 a5 3e 20 74 26 3e
       -0.3637846 -0.016366374 0.32278833 0.16255236
0000b0 03 b2 d9 bd 73 a2 9e 3e c4 72 87 be 24 10 86 3e
       -0.10629656 0.30983314 -0.26454747 0.2618419
0000c0 57 3a 7a 3e d1 d4 11 bd 00 f9 2a 3e f4 14 1e 3e
       0.24436317 -0.03560335 0.16696548 0.1543768
0000d0 da 4d 32 3f 83 ab c5 be d3 9b b9 bd 54 c0 8b be
       0.6965004 -0.38607416 -0.09062924 -0.27295172
0000e0 a9 8d da bd 1f c5 47 3e 4a 77 12 be 7c 00 ae 3e
       -0.10671551 0.1950879 -0.14303318 0.33984745
0000f0 dd 44 c4 3e 11 80 1f 3f f8 8a b6 3e af cc cb 3e
       0.3833379 0.6230479 0.356529 0.398046
000100 39 93 c3 3e a6 77 84 be f2 84 c7 3e 7c 52 04 3e
       0.3819826 -0.25872535 0.38968617 0.1292209
000110 7e e9 07 3e a3 7a 09 be 0c 77 1e 3f ec 1d 3c 3b
       0.13272664 -0.13425688 0.619004 0.0028704358
000120 5d bc d5 3e 31 6f 90 be d2 db 67 be 94 36 90 be
       0.41745272 -0.28209832 -0.22642449 -0.2816664
000130 59 94 24 be f9 38 51 3e 40 bc f3 3e 49 15 18 be
       -0.16072215 0.2043189 0.4760456 -0.1485187
000140 d2 3d a3 3e a7 76 65 3e 57 c5 ca be 73 8c 4d be
       0.31883103 0.22408544 -0.39603683 -0.20073108
000150 3d 65 a9 3e 66 67 47 bd 6a ad 83 3e 7e 27 f2 be
       0.3308505 -0.048682593 0.25718242 -0.47295755
000160 14 e6 18 be ef c7 f9 3d ce b3 94 3e 7d 81 14 3f
       -0.14931518 0.121963374 0.2904343 0.58010083
000170 c3 3d 4a be a1 93 d8 3e 63 d2 43 3e e6 af d0 3d
       -0.19750123 0.42300132 0.19123225 0.101898
000180 88 5c 72 be fc 98 07 be 2b 37 3a 3e 8d 5a 92 3e
       -0.2366811 -0.13241953 0.18185107 0.2858471
000190 1a 61 eb be bb 09 16 bd a9 69 0f bf b8 2c 51 be
       -0.4597252 -0.036630373 -0.560206 -0.20427215
0001a0 2e 2b 56 3e 66 16 e3 be ae fa cd 3c 4d 95 a3 be
       0.20914909 -0.44353026 0.025143947 -0.31949845
0001b0 03 d3 fb bd 88 f2 f8 bd c0 a8 2b 3e f2 8a e3 3e
       -0.12296107 -0.12155634 0.16763592 0.44441944
0001c0 e6 9c 12 3f 0c db f0 be 18 a4 5a be 02 38 d0 3d
       0.5727066 -0.4704212 -0.2135166 0.10166933
0001d0 8c 1c b5 be c2 b4 38 3e 8f 20 47 be c3 cc 03 3e
       -0.35373342 0.18037704 -0.19446014 0.12871079
0001e0 34 1f 53 3e b3 dc 11 bf b2 d1 08 3e 00 80 31 3f
       0.20617372 -0.56977385 0.13361242 0.6933594
0001f0 cf 42 c2 be 85 74 38 3e 3c af 80 be f3 86 e5 be
       -0.37941596 0.18013199 -0.25133693 -0.4482952
000200 95 e8 32 be 80 58 42 bd 54 3c 2a 3d ef dd bc be
       -0.17471536 -0.04744768 0.04156144 -0.36888072
000210 8f 37 8b be c4 92 0d bf f2 e7 cf bd 43 30 e6 3e
       -0.27190825 -0.5530207 -0.10151662 0.44958696
000220 45 87 93 be e8 39 87 be 2a 9a 92 be 67 49 bb 3d
       -0.2881414 -0.26411366 -0.28633243 0.0914486
000230 89 65 4a bf dc 81 38 3e 1a c5 1a 3e e6 48 1c 3f
       -0.7906118 0.18018287 0.15114251 0.61048734
000240 50 b1 63 3d a5 a2 59 3e b1 e4 0f be 12 32 22 be
       0.05558902 0.2125345 -0.14052083 -0.15839413
000250 2d 50 7a 3e eb 60 2d bd 89 8d fd bc cb 15 bd 3d
       0.24444647 -0.042328756 -0.030951278 0.09232672
000260 65 97 05 3f 5c ff 46 3e bc d1 c9 3e 26 f7 52 be
       0.52184135 0.1943335 0.39417827 -0.20602092
000270 12 88 be be 65 01 d8 3d 1e d2 dd be 64 9a b4 be
       -0.37213188 0.10547141 -0.4332437 -0.3527404
000280 50 a6 20 3d fc c1 a1 be 20 46 16 bf 0e 01 60 bd
       0.039221108 -0.3159331 -0.5870075 -0.054688506
000290 86 fc af be fa 0d ea bd 5f d8 85 3e aa 45 28 3d
       -0.34372348 -0.11428447 0.2614164 0.04108206
0002a0 92 b5 90 3e 98 5d 09 3e 76 fe 9d 3e 03 25 fe 3d
       0.28263527 0.1341461 0.308582 0.12409403
0002b0 7d c0 2c bd 3b ec 32 be f4 26 99 be 57 e4 02 be
       -0.04217576 -0.17472927 -0.2991253 -0.12782417
0002c0 53 a1 0c 3f 02 09 04 bf 22 94 cc 3e 20 79 98 3e
       0.5493366 -0.51576245 0.39956766 0.2977991
0002d0 37 68 bb bd 47 e4 e3 be e2 f6 0c 3f cf 44 a9 3e
       -0.09150737 -0.445101 0.55064213 0.3306031
0002e0 af 34 a9 3e f6 b4 16 3f 36 3c 20 bf 09 cb 99 3e
       0.33048007 0.58869874 -0.62591875 0.30037716
0002f0 5e 15 0a 3f 0c 9d ad bc a8 8a 75 3e d4 c3 77 3e
       0.53938854 -0.02119305 0.23978674 0.24195796
000300 e5 a0 cb be 3f 84 1c be 82 97 e5 be 24 cd e6 bd
       -0.3977119 -0.15284823 -0.44842154 -0.11269596
000310 9d d2 08 3f ae 7c b4 bd 93 b3 0d be a2 49 6e be
       0.5344637 -0.08812843 -0.13838033 -0.23270276
000320 70 04 a7 3e 69 13 35 3e 54 cc a4 3d e1 57 8f bc
       0.32620573 0.17683186 0.08046785 -0.017497959
000330 de c9 4c 3f f5 b8 2a 3e 74 07 15 3e 9f c1 18 3d
       0.79995525 0.16672118 0.14553624 0.037294026
000340 f0 7b 1b 3f 33 64 87 bd 94 ee 6c 3e 98 a6 cc 3e
       0.6073599 -0.06610908 0.23137885 0.3997085
000350 8f ff b4 be ea cb ac 3e 25 42 19 bc 35 65 0f 3f
       -0.35351226 0.33749324 -0.009354149 0.56013805
000360 6c 58 71 be c1 5e 02 be 67 d9 72 3e 7c 92 14 be
       -0.23568887 -0.12731458 0.23715745 -0.14509004
000370 f1 d4 12 be 2f e6 6a be a9 e4 27 be 81 ef 79 3e
       -0.14339043 -0.2293937 -0.1639582 0.2440777
000380 42 c7 07 3f ee 77 bf be 80 04 84 3d ec 1c a7 bc
       0.5303842 -0.37396187 0.06446171 -0.020399533
000390 e3 2f b7 3d a2 8a 2c 3f 7a a4 9a 3e 1f da 8c 3e
       0.089446805 0.67399037 0.3020361 0.27510163
0003a0 25 32 0e 3e a0 93 88 3e 72 36 8e 3e 59 62 3a be
       0.13886316 0.2667513 0.27775913 -0.18201579
0003b0 9a 32 61 3e dd 3b 17 be c0 0b 06 3f 5c ad 80 be
       0.21991959 -0.1476893 0.5236168 -0.25132263
0003c0 65 d5 b8 3e 78 e4 7a be cd 3d 01 be b6 af 22 be
       0.36100307 -0.24501216 -0.12621231 -0.15887341
0003d0 48 19 00 3f 9a 9d 21 bf e9 c8 f6 be a7 0e 77 3d
       0.50038576 -0.63131106 -0.48200157 0.060316708
0003e0 07 4a 79 bd 04 87 d0 3d 0e 72 3b 3d 33 be 13 be
       -0.060861614 0.10182002 0.045763068 -0.14428024
0003f0 78 6e 19 bd 93 aa 6e 3d 22 8b 10 bf a0 08 dd 3d
       -0.037458867 0.05826814 -0.564623 0.10792661

network_body._body_endoder.seq_layers.2.bias f4 [128]
000000 8f c8 47 ba 22 57 2e 2a 38 ac 99 bc 5e a8 7b a3
       -0.0007621133 1.5484535e-13 -0.018758878 -1.364239e-17
000010 97 02 85 bc 37 e9 0b bc 10 b6 e4 b9 00 00 00 00
       -0.016236586 -0.0085394895 -0.00043623196 0.0
000020 84 49 be 3c 63 8e 2e bc 8b 30 75 af 00 00 00 00
       0.023228414 -0.010654065 -2.2299866e-10 0.0
000030 8c b2 55 3c 96 c8 9d ba 6b 63 de ba e9 a3 14 bb
       0.013043057 -0.0012037929 -0.0016966885 -0.0022680706
000040 87 1d fb bb c8 d5 23 bc fa d8 36 ba 10 9d f8 39
       -0.007663432 -0.0099997 -0.0006975081 0.00047419267
000050 3a 08 ad bb 52 89 bb 3c 00 00 00 00 74 c3 64 bc
       -0.0052805217 0.022892628 0.0 -0.013962615
000060 00 00 00 00 00 00 00 00 68 ac ff ba ee b3 98 bc
       0.0 0.0 -0.0019506337 -0.018640485
000070 a9 28 f8 bb 25 ab 5e 91 ad 92 8a bc 0f fc 75 bc
       -0.0075732064 -1.756545e-28 -0.016915644 -0.015013709
000080 00 00 00 00 37 8c 97 b7 40 7e 25 b5 3e 4a 46 3d
       0.0 -1.8065895e-05 -6.165101e-07 0.048410647
000090 c6 7b 20 bc 19 e1 92 bc 00 00 00 00 05 60 9f bc
       -0.009795135 -0.0179296 0.0 -0.019454965
0000a0 9a 0f c5 bc 8b 44 2b bb 49 9a 0d 3d 04 65 70 bc
       -0.024055291 -0.0026133384 0.034570966 -0.0146725215
0000b0 86 fa 71 3c 5d 0c d5 3c 0a ca b2 29 df 0d 0a 3d
       0.014769202 0.026006872 7.939836e-14 0.033704635
0000c0 00 00 00 00 00 00 00 00 a3 90 bc 3b e5 95 10 bc
       0.0 0.0 0.0057545467 -0.0088248
0000d0 58 8b 78 bc 00 00 00 00 c7 01 0a 3c 00 00 00 00
       -0.015169941 0.0 0.008423275 0.0
0000e0 57 79 32 bb 70 c8 e4 bb 6e 20 8f 3c 59 4b 61 bc
       -0.0027232969 -0.006981902 0.017471518 -0.013750874
0000f0 61 e9 e9 bb 91 f2 72 bb 5e ba 13 bb 13 93 ae 3c
       -0.0071384166 -0.003707085 -0.0022541503 0.021310365
000100 b7 e5 08 bc 39 5d fc bb af 1f c9 3c a5 95 89 bc
       -0.00835555 -0.0077015427 0.02455124 -0.016794989
000110 26 b9 9e bc c3 0c ae bb 3d 9a 86 ba b6 78 09 3d
       -0.019375395 -0.00531158 -0.0010269355 0.033562385
000120 da 9c 22 bc d5 f4 06 bc c5 bf 67 bc 1c 4d 4e bb
       -0.009925092 -0.008237083 -0.0141448425 -0.0031479066
000130 24 e7 e6 bb a9 47 90 ad 7a c6 eb 10 8f 73 8e bc
       -0.007046597 -1.6402728e-11 9.299696e-29 -0.017389087
000140 7d b1 fb 3c 2e ec e0 3c 7d 81 c0 bc fa a0 c4 bb
       0.030724281 0.02745637 -0.023499245 -0.006000635
000150 7e 25 4d bc 00 00 00 00 6a 82 27 93 48 6b 70 23
       -0.012521146 0.0 -2.1142662e-27 1.3033144e-17
000160 60 fc c9 bb c7 4e 7a bc 38 66 03 3d 95 28 cd bc
       -0.0061641186 -0.015277571 0.032079905 -0.025043765
000170 ec 84 6e 3b f4 2f 4c bb 97 ba 2b b7 76 d8 8d 3c
       0.0036395146 -0.0031156512 -1.0235838e-05 0.01731513
000180 60 a9 a3 31 1a c3 17 3c 7d d0 aa bc cd 0a b7 3c
       4.76318e-09 0.009262824 -0.020851368 0.022344017
000190 ac f9 5b bb 93 ca 4f bc 00 00 00 00 85 70 e8 bb
       -0.0033565564 -0.012682575 0.0 -0.0070934915
0001a0 29 0a 28 bc 34 e1 db b7 fb f3 e5 bb d7 fc 1e bc
       -0.010256329 -2.6211703e-05 -0.00701761 -0.009703836
0001b0 00 00 00 00 bd c7 ec bb b5 10 d8 3c 09 01 16 bc
       0.0 -0.007225959 0.026375154 -0.00915552
0001c0 b6 57 96 bb 0f 44 f4 ba de 9f 9a 3b 36 df 40 06
       -0.0045880927 -0.0018636006 0.0047187647 3.6275176e-35
0001d0 54 b8 b4 3b aa e2 8a bc e1 38 08 bc 09 14 a2 bc
       0.0055151377 -0.016953785 -0.008314342 -0.019784944
0001e0 ab 76 32 bc 66 bc 73 b8 4a 30 a7 bc 00 00 00 00
       -0.01089255 -5.8111174e-05 -0.020408768 0.0
0001f0 f8 80 d7 bc 0c 57 3d bb 58 a0 3c 21 39 87 9c 05
       -0.026306614 -0.0028890995 6.390909e-19 1.4719842e-35

network_body._body_endoder.seq_layers.2.weight f4 [128, 128]
000000 69 63 24 be 46 c6 66 be fb bc 95 bc 53 5d 8d bc
       -0.16053547 -0.22536573 -0.01827859 -0.017256415
000010 be e1 37 bd 62 25 d0 bd 18 a7 f2 3c 2d 1e bd 3d
       -0.04489302 -0.1016338 0.029620692 0.09234271
000020 e7 e7 c9 bd c5 b6 da bc fb b6 f0 3c 64 fb 9d bc
       -0.09858685 -0.02669848 0.029384127 -0.019284911
000030 47 46 5f bc c8 74 09 3d 53 e3 84 bc 92 92 a8 3d
       -0.013627595 0.033558637 -0.016221678 0.08231081
000040 7b e1 d6 3d f9 6b 46 bc 59 31 14 be 96 66 61 bd
       0.10492226 -0.012110704 -0.1447195 -0.055029474
000050 32 74 8a bd 4d 02 c9 3c f8 63 d9 bd 64 a1 bb 3c
       -0.06760444 0.02453723 -0.10614771 0.022904105
000060 3d 32 0f be 91 61 a6 3d fb e6 b9 3d 03 39 16 be
       -0.13984008 0.08124078 0.09077259 -0.14670186
000070 8d 54 f3 3d 71 88 9a 3d 74 65 9f bd 44 71 06 be
       0.11881361 0.075455554 -0.077830225 -0.13129145
000080 4a 20 a1 bd d2 36 b0 3d c9 7d 52 3e 98 ce 64 3d
       -0.07867487 0.08604206 0.20555796 0.055861086
000090 04 bb 13 3e a3 a9 0a bc ee ec ef bc e7 58 85 bc
       0.1442681 -0.008463296 -0.029287782 -0.016277744
0000a0 f1 3e 1e 3e fc 57 84 bd bf 6b a3 bd 9f 95 9f bb
       0.15453698 -0.06462094 -0.07979535 -0.004870131
0000b0 45 fc eb 3c 05 3d 7a 3c 5f 51 47 3d 2f 7a 45 3d
       0.028806815 0.015273337 0.048661586 0.048212226
0000c0 ae 75 fe bd 4d 81 fb bd 30 e0 52 be 3a c5 5d bd
       -0.12424789 -0.122805215 -0.20593333 -0.054143168
0000d0 d4 8d 9e 3b 9c 2d 4b 3d d3 68 b2 bd 8d 8a 8f bc
       0.0048386846 0.049604043 -0.087114 -0.01752212
0000e0 1f 14 58 bd 84 db 7b bc e2 89 33 ba cd f5 29 3d
       -0.052753564 -0.015372161 -0.0006848854 0.04149418
0000f0 e0 0e ce 3c ac 3c 57 bb 13 46 da 3d d7 02 0f 3e
       0.025153577 -0.003284256 0.10657897 0.13965927
000100 1e 9f 00 3e c9 8a 16 3e 2c 20 18 be 48 04 01 be
       0.12560698 0.1470138 -0.14856023 -0.1259929
000110 ad 51 1c be 61 25 29 be 7e 28 22 3e 9e 8f 14 bd
       -0.15265532 -0.16518165 0.15835759 -0.036269777
000120 6d 25 db 3d 50 39 ea bc e0 42 13 3c 35 1b 3e 3d
       0.10700498 -0.028591782 0.008988112 0.046412665
000130 fd de 56 bd a6 81 c7 bd b9 37 cf 3b 52 88 8a bd
       -0.052458752 -0.09741525 0.0063237813 -0.06764282
000140 11 60 0a bb d4 da 67 3c ce 1c 08 3d e6 00 d7 bd
       -0.002111439 0.014151294 0.033230595 -0.10498218
000150 1e 88 83 3d 32 b7 02 3e 3b b8 20 bd eb eb 2a be
       0.06422447 0.12765196 -0.039238196 -0.16691558
000160 aa 3a b7 bd f2 fd 40 bd 3f a4 e7 bd 48 95 73 3d
       -0.08946736 -0.04711718 -0.11310624 0.059468538
000170 14 2c 04 be 74 53 01 bd e5 fa ba bd 45 77 8f bd
       -0.1290744 -0.031573728 -0.091298856 -0.07005171
000180 8b 66 fa bd 7a 3e 44 be 22 90 5b bd 91 0c 39 be
       -0.1222659 -0.19164458 -0.053604253 -0.180712
000190 04 6a ce bd 6c 7b 2d 3e 82 da 2f bc de 0d 13 bd
       -0.100788146 0.16941613 -0.010733249 -0.035901897
0001a0 9f 59 91 bc 0d e9 bb bc e4 aa 81 bc cd 03 59 3e
       -0.01774293 -0.022938276 -0.015828557 0.21192856
0001b0 79 0e a5 bd 74 bf 5e 3d 34 41 50 3e d3 f0 87 bd
       -0.08059401 0.054381803 0.20337373 -0.066377304
0001c0 f0 54 0b 3e 70 a0 16 3c cd 00 c1 3d 42 14 ca 3d
       0.1360662 0.009193525 0.09423981 0.09867145
0001d0 ef 4c bf 3d 58 1d 7a 3d e9 7d 4a 3d e7 a0 7b bc
       0.09340846 0.06106314 0.049436484 -0.015358186
0001e0 77 24 e6 3d 3f 4e 4a be 9c 34 ab 3c b5 f0 f7 bd
       0.11237424 -0.19756411 0.02089911 -0.12106458
0001f0 c8 7d 81 bd fd 1d c1 3d 16 06 0b be fa bf 21 be
       -0.06322819 0.09429548 -0.1357654 -0.1579589
000200 e9 fb 88 3d 18 b0 d9 3c af 77 e3 bc a4 5b 0a be
       0.06688673 0.026573226 -0.02776703 -0.1351152
000210 51 7a 0e 3d a4 a1 ce 3d 58 42 77 3d b3 85 83 bd
       0.03478462 0.10089424 0.060366005 -0.064219855
000220 e7 0b b4 bc c5 56 c5 bd 44 0b ac 3d 3d 11 58 be
       -0.021978332 -0.096356906 0.08400586 -0.21100326
000230 9f 63 62 3d 41 e9 27 3d 3c 86 b7 3d ac 7f bf bd
       0.055270787 0.040993933 0.0896115 -0.09350523
000240 fe 88 c9 bb 51 7d 1a 3c 98 d1 25 3d af fd 3d bc
       -0.006150364 0.009429292 0.040483087 -0.011596127
000250 02 28 85 bd fa 16 68 3d 83 1a 00 be a9 69 c8 bc
       -0.065017715 0.056662537 -0.12510113 -0.024464445
000260 22 cd 75 3d de 13 4c 3d f5 d4 e1 3d 6b 0e ca bd
       0.060010083 0.049823634 0.110269465 -0.09866031
000270 66 bb 59 bc 96 04 38 3d 19 56 bd 3d bb d2 74 bd
       -0.013289308 0.04492625 0.092449374 -0.05977128
000280 fc fd 81 3d 6f fd 94 3d 10 7a 37 be fa ab e6 bd
       0.06347272 0.07274901 -0.17917657 -0.11263271
000290 4d 18 02 bd 42 92 9b 3d 3f c3 04 be b4 c1 98 3d
       -0.031761456 0.07596256 -0.12965105 0.07458821
0002a0 49 54 ab 3c cd 92 8d bc c0 22 8e 3c ac d5 22 bd
       0.020914214 -0.017281914 0.017350554 -0.039754555
0002b0 75 44 31 be d9 22 0c bc b2 f7 26 3e 65 9a fb bb
       -0.1731127 -0.00855323 0.16305426 -0.0076783174
0002c0 25 e6 99 bd 4c 8c fa bd 0e e0 3e be ac 76 8b 3d
       -0.075146 -0.12233791 -0.18640158 0.06809744
0002d0 c5 1e 13 3e 42 66 44 bd 70 89 dc bd c9 f5 89 bd
       0.14367206 -0.047949083 -0.107684016 -0.06736333
0002e0 f4 ed 5b 3e c0 5f 31 bd 40 e4 02 bd a5 81 13 be
       0.2147749 -0.043304205 -0.031955957 -0.14404924
0002f0 29 7a c5 bd aa f2 a6 3d e3 87 83 bd 5c e8 50 3d
       -0.09642441 0.08151753 -0.06422403 0.051002845
000300 7b b0 98 bd 6a 7a e8 bb 91 fb 23 bd a3 b9 ea bb
       -0.07455536 -0.007094671 -0.040034834 -0.007163243
000310 c4 18 fb bd 2e 4e f6 3d 01 cd db bb cc 7c f2 3d
       -0.12260583 0.1202663 -0.006707788 0.11840209
000320 7e e6 48 3d 21 5e 68 3d bc fe 84 bd fe 85 a5 3d
       0.04904794 0.056730393 -0.06493899 0.080821976
000330 18 03 ad 3c d8 f1 b8 bd 20 94 01 3b 27 59 3d 3c
       0.02111964 -0.09030503 0.0019772127 0.0115569
000340 ce 78 2c bd 1a ec 4b 3d eb 65 83 bd f2 52 ad bd
       -0.042107396 0.04978571 -0.06415924 -0.08463086
000350 54 06 b3 bd ba ee 16 bd ff d5 14 3d 84 7d 23 be
       -0.08741441 -0.03684876 0.036336895 -0.15965849
000360 31 95 aa bb cc 1c 48 be 21 b3 70 3d 07 7f 07 be
       -0.0052057733 -0.19542235 0.05876458 -0.13232051
000370 e9 02 a5 3d 84 a9 a6 bd 0d 82 8f 3d d0 01 78 3c
       0.08057196 -0.08137801 0.07007227 0.015137151
000380 ec e7 83 bd 69 94 1b 3e ba 4f 85 3c 9d 2a 73 bc
       -0.0644072 0.15193333 0.016273368 -0.014841703
000390 5e 8a 13 be 6c 00 50 be 6a 38 d1 3c 32 51 bb 3d
       -0.14408252 -0.20312661 0.025539596 0.09146346
0003a0 9c 89 85 bd a6 cf ec 3d 95 1a cf 3c d9 ca 03 3d
       -0.065203875 0.11563043 0.02528123 0.032175872
0003b0 d7 de b4 3d 10 20 50 3d 9b 68 0b 3e eb b5 56 bd
       0.08831566 0.050811827 0.13614123 -0.052419584
0003c0 e3 74 c4 3a da 3c df bd ed 3a a5 3d f0 02 c7 3d
       0.0014988448 -0.109002784 0.0806788 0.09717357
0003d0 ef 5e 8a bd 06 31 d2 3d 07 5d 58 bd b2 c7 41 3d
       -0.067563884 0.10263257 -0.052823093 0.047309585
0003e0 7b 46 77 bc 28 2f 4e bd 0d 75 a7 3d 39 19 5e be
       -0.015092487 -0.05033794 0.081766225 -0.21689309
0003f0 80 35 dd 3d ca c5 8e bc db 31 37 bd cb 20 2d 3e
       0.1080122 -0.017428298 -0.04472528 0.16907041
