Assets/Trained Models/Worker.onnx (onnx, 252315 bytes, 13 tensors)

action_model._continuous_distribution.log_sigma f4 [1, 3]
-0.6701198 -0.63206947 -0.80291575
00000000: f98c 2bbf 4ecf 21bf e38b 4dbf

action_model._continuous_distribution.mu.bias f4 [3]
0.0325436 0.06894376 0.038716823
00000000: 704c 053d 6332 8d3d 8895 1e3d

action_model._continuous_distribution.mu.weight f4 [3, 128]
-0.022515826 0.0008040412 0.019196674 0.057286635 0.043369673 0.013630011 0.0046815346 -0.1288137
-0.080438845 0.06054515 -0.061556786 0.048606943 -0.020308416 0.06488959 -0.022864489 -0.06629992
-0.07766597 -0.0062031946 -0.06913308 -0.12363201 0.026829883 -0.15676422 -0.037486553 0.13522442
-0.063373476 -0.015845481 -0.0061536357 -0.07154194 -0.030098267 0.0056980466 -0.017542217 -0.032439034
0.061714638 0.08547083 -0.0015816344 -0.09016082 0.08727785 0.030810885 -0.02831337 0.100157626
-0.040088266 -0.045359183 -0.11325878 -0.05170393 -0.038022462 0.08715395 -0.045693208 -0.04712343
0.06366713 -2.2404089e-05 -0.053187918 -0.0033530735 -0.077063054 0.029022984 -0.04808908 -0.08743984
-0.005770131 -0.05246142 -0.044202708 0.010840363 -0.05784164 0.083301015 -0.058065314 -0.08127741
-0.09189757 0.022090677 -0.03266985 -0.08742318 0.008095611 -0.017370503 -0.03513658 0.04691628
0.006037989 -0.009314503 -0.036769103 0.003954433 -0.005535387 -0.015403253 -0.07630127 -0.012851295
0.009959407 0.028014645 0.08001046 0.001044032 -0.04595255 -0.098867886 -0.12030125 -0.099893734
0.014855725 -0.008401914 -0.11159487 -0.004816563 0.092732206 -0.05640065 -0.082017995 0.08360079
-0.010885901 -0.07575523 -0.025973406 0.08594405 0.083032735 -0.0011365182 0.012959136 0.09604666
-0.002872678 0.034883503 -0.06291403 -0.009434006 -0.04060669 0.030023085 -0.008653972 0.0043363445
-0.14950079 -0.029976089 0.008608587 0.10933307 0.13155328 -0.041487604 0.009005767 0.017583141
0.010313099 -0.03211789 -0.08609793 0.040085364 -0.055642195 -0.03794515 0.0440288 0.012306148
-0.05413605 0.032168426 0.043696687 -0.07066326 -0.011881041 -0.037892822 0.009385332 -0.00038586644
-0.039751675 -0.050045386 0.004542244 -0.043140005 0.06655003 0.027522095 0.0030891362 0.004292809
-0.06767686 -0.10062438 0.0651984 -0.054644596 0.099397965 -0.10550194 0.029903105 -0.1395329
-0.020126456 -0.011709619 -0.0599596 -0.089764774 -0.047517624 -0.01520706 -0.032244917 -0.040163968
0.037868574 0.009511331 -0.020510523 0.034852672 0.022367515 0.06269595 0.027938914 -0.06072449
0.061758105 0.06431994 -0.008618581 -0.008436278 -0.05679378 -0.05603204 -0.03875301 -0.03223759
0.038427554 0.011544602 0.014319055 0.0019344215 0.052753735 0.044357177 0.048352413 -0.05811713
-0.07406858 -0.11422097 -0.010155808 -0.057491474 -0.00746426 0.0055216635 -0.10019707 -0.04453234
-0.081998535 0.064330265 -0.010295512 -0.0041048555 0.00634937 0.024446791 -0.07500508 0.10396156
0.0115269255 -0.030817803 0.043551054 -0.06296959 0.04658603 -0.046933208 -0.10895131 0.07492708
-0.089584894 -0.084266484 -0.06262696 0.0011090252 0.034549456 -0.01942242 -0.041820962 0.019149832
0.035288673 -0.06763975 -0.00917745 -0.083583765 -0.04773629 -0.03840007 -0.10658328 -0.09757242
-0.07774872 0.051420406 -0.040558856 0.025683263 0.008949353 0.05781224 -0.09156317 0.06413108
-0.054071933 -0.11879802 0.0256434 0.13657984 -0.051551722 0.022821335 -0.008510366 -0.042545848
0.044267103 -0.111048736 0.10072842 -0.018598093 0.01953046 -0.040534277 0.08303918 -0.1013096
-0.07527327 0.1262801 0.019395301 0.07524054 -0.012511615 0.0495532 -0.13799104 -0.119962074
00000000: 1c73 b8bc 4bc6 523a 5842 9d3c 64a5 6a3d
00000010: 66a4 313d 6950 5f3c 8f67 993b bde7 03be
00000020: 1fbd a4bd 31fe 773d f822 7cbd 1318 473d
00000030: d65d a6bc d5e4 843d 4f4e bbbc 41c8 87bd
00000040: 560f 9fbd 2b44 cbbb a595 8dbd c732 fdbd
00000050: 58ca db3c cd86 20be 808b 19bd 4578 0a3e
00000060: f4c9 81bd 62ce 81bc 70a4 c9bb 9584 92bd
00000070: a490 f6bc aeb6 ba3b b2b4 8fbc cbde 04bd
00000080: 7dc8 7c3d 550b af3d d84e cfba 3ca6 b8bd
00000090: bbbe b23d 1c67 fc3c 71f1 e7bc 711f cd3d
000000a0: 9833 24bd 8dca 39bd 38f4 e7bd 80c7 53bd
000000b0: 71bd 1bbd c57d b23d cd28 3bbd 7f04 41bd
000000c0: ea63 823d 6af0 bbb7 93db 59bd 3dbf 5bbb
000000d0: 3cd3 9dbd 9cc1 ed3c 0ef9 44bd a913 b3bd
000000e0: 5e13 bdbb c9e1 56bd e60d 35bd c79b 313c
000000f0: 5beb 6cbd b999 aa3d e5d5 6dbd c574 a6bd
00000100: cb34 bcbd 82f7 b43c d2d0 05bd ed0a b3bd
00000110: 74a3 043c 964c 8ebc 60eb 0fbd 492b 403d
00000120: 53da c53b db9b 18bc 339b 16bd 3094 813b
00000130: 3162 b5bb ed5d 7cbc d743 9cbd 3d8e 52bc
00000140: c82c 233c f87e e53c 86dc a33d e7d7 883a
00000150: be38 3cbd 3f7b cabd 8060 f6bd 1695 ccbd
00000160: 6d65 733c 2ea8 09bc da8b e4bd 42d4 9dbb
00000170: 62ea bd3d 5e04 67bd 0df9 a7bd e436 ab3d
00000180: c75a 32bc 8f25 9bbd 2ec6 d4bc 6f03 b03d
00000190: 110d aa3d 39f7 94ba 8e52 543c 1cb4 c43d
000001a0: 8a43 3cbb 01e2 0e3d 12d9 80bd 1791 1abc
000001b0: 3353 26bd f9f2 f53c 64c9 0dbc e517 8e3b
000001c0: bc16 19be 6a90 f5bc 080b 0d3c 04ea df3d
000001d0: e7b5 063e e8ee 29bd ed8c 133c 850a 903c
000001e0: 46f8 283c 0c8e 03bd 1d54 b0bd 8d30 243d
000001f0: 12e9 63bd 606c 1bbd 8b57 343d ba9f 493c
00000200: c3bd 5dbd 0ac3 033d 4cfb 323d e6b7 90bd
00000210: b3a8 42bc 8135 1bbd f0c4 193c 1e4e cab9
00000220: a7d2 22bd 64fc 4cbd 1bd7 943b 93b3 30bd
00000230: 624b 883d 0476 e13c 1b73 4a3b b1aa 8c3b
00000240: 2a9a 8abd 2814 cebd bd86 853d 03d3 5fbd
00000250: 2991 cb3d 6711 d8bd 5bf7 f43c b6e1 0ebe
00000260: 3de0 a4bc b4d9 3fbc 3398 75bd 98d6 b7bd
00000270: d7a1 42bd 0827 79bc 3f13 04bd f982 24bd
00000280: 141c 1b3d 6ad5 1b3c af05 a8bc adc1 0e3d
00000290: 143c b73c bc66 803d 26e0 e43c 3eba 78bd
000002a0: 11f6 7c3d 2cba 833d f334 0dbc 5138 0abc
000002b0: 98a0 68bd da81 65bd 7abb 1ebd 900b 04bd
000002c0: 3666 1d3d 9225 3d3c 789a 6a3c 6a8c fd3a
000002d0: 4d14 583d dfaf 353d 2e0d 463d 3a0c 6ebd
000002e0: 45b1 97bd afec e9bd 8c64 26bc 2e7c 6bbd
000002f0: c096 f4bb 12ef b43b 1f34 cdbd 8b67 36bd
00000300: d9ee a7bd 96bf 833d 82ae 28bc 0682 86bb
00000310: 600e d03b a344 c83c 439c 99bd cce9 d43d
00000320: 6edb 3c3c 9e75 fcbc 9762 323d 33f6 80bd
00000330: fed0 3e3d 093d 40bd dd21 dfbd 5e73 993d
00000340: 4978 b7bd e893 acbd 9042 80bd b65c 913a
00000350: bb83 0d3d c41b 9fbc 754c 2bbd 1ce0 9c3c
00000360: db8a 103d b686 8abd 045d 16bc f72d abbd
00000370: 2187 43bd 6449 1dbd 5648 dabd 0dd4 c7bd
00000380: b93a 9fbd 349e 523d 0b21 26bd b565 d23c
00000390: 4fa0 123c 87cc 6c3d 7985 bbbd 2857 833d
000003a0: 887a 5dbd 604c f3bd 1c12 d23c 96db 0b3e
000003b0: e627 53bd cff3 ba3c 106f 0bbc 8e44 2ebd
000003c0: 6c51 353d 856d e3bd b44a ce3d 075b 98bc
000003d0: 58fe 9f3c 4507 26bd 7210 aa3d 687b cfbd
000003e0: df28 9abd 924f 013e e5e2 9e3c b617 9a3d
000003f0: 84fd 4cbc 4cf8 4a3d 864d 0dbe adae f5bd

network_body._body_endoder.seq_layers.0.bias f4 [128]
-0.056308128 0.042656858 0.02483971 0.0076906364 0.020952044 -0.006153434 -0.0056357896 -0.016786058
-0.029224604 -0.06449949 0.02035763 -0.0045085163 -0.027324986 0.0086619295 -0.0034929016 -0.0117877405
-0.013549222 -0.026349967 0.005763004 0.054343972 -0.082374714 0.0023985845 -0.047268935 -0.057434198
-0.06839151 -0.02959284 -0.029248625 -0.011343879 0.009862594 0.030276652 -0.099627905 0.006026079
0.00037635097 -0.04830248 -0.02770377 -0.021209802 0.034547552 -0.013151826 -0.08519571 -0.016802339
0.024553342 -0.009497863 -0.004073789 0.0041219434 -0.036827523 0.039389957 -0.020183386 -0.023605423
-0.07900612 -0.060570743 -0.026356734 -0.03297653 0.0123130055 -0.018983202 0.02080233 -0.018126693
-0.015500002 -0.07782975 -0.0049926946 -0.0043825456 -0.038446758 0.05567955 -0.025542254 -0.036866304
-0.029840061 0.023443947 -0.028513186 -0.044819765 -0.035987142 -0.011186136 0.013957521 -0.031687725
-0.03531526 0.036080606 -0.018583726 0.0047991513 0.015917799 -0.013122099 -0.083422355 -0.009155219
0.0022752616 -0.0012989176 -0.0165542 0.00993006 0.014989113 -0.07857007 -0.07889617 -0.037289016
-0.059942506 -0.0014851701 0.037233327 0.0558476 -0.02979511 -0.055346277 -0.081612214 -0.03551463
0.013577866 0.036979154 -0.038190037 0.030718444 -0.056154583 -0.025359087 0.01694639 0.043196082
0.033996616 -0.031050459 -0.044218857 -0.012218662 -0.03601447 -0.045014154 0.009216127 0.01789638
-0.012367554 -0.041869547 -0.01980485 -0.041315306 -0.012409542 -0.005439327 0.008334778 0.014992688
-0.10106692 0.03292796 -0.03629101 -0.030775767 -0.0035505143 0.021947335 -0.06261955 -0.01682478
00000000: 5aa3 66bd f5b8 2e3d a67c cb3c bc01 fc3b
00000010: 9fa3 ab3c bfa2 c9bb 6eac b8bb ea82 89bc
00000020: 7068 efbc 4f18 84bd 0bc5 a63c 2dbc 93bb
00000030: a6d8 dfbc c4ea 0d3c 2ae9 64bb 5e21 41bc
00000040: 8efd 5dbc e3db d7bc 95d7 bc3b c997 5e3d
00000050: 13b4 a8bd 9231 1d3b 129d 41bd 1f40 6bbd
00000060: d910 8cbd af6c f2bc d09a efbc addb 39bc
00000070: b896 213c be06 f83c b709 ccbd 6a76 c53b
00000080: f950 c539 d2d8 45bd 04f3 e2bc 2ec0 adbc
00000090: bc81 0d3d c27a 57bc 177b aebd 0fa5 89bc
000000a0: 1724 c93c ed9c 1bbc 6b7d 85bb 5e11 873b
000000b0: 75d8 16bd 5d57 213d a157 a5bc 2960 c1bc
000000c0: f6cd a1bd 0719 78bd 14ea d7bc 6612 07bd
000000d0: 7dbc 493c a982 9bbc a669 aa3c 6e7e 94bc
000000e0: b8f3 7dbc 3465 9fbd c299 a3bb 759b 8fbb
000000f0: 597a 1dbd 3d10 643d fd3d d1bc 1f01 17bd
00000100: 2573 f4bc 850d c03c 7c94 e9bc ee94 37bd
00000110: 4167 13bd 0e46 37bc 16ae 643c fdca 01bd
00000120: bca6 10bd 42c9 133d e63c 98bc 3342 9d3b
00000130: 0b66 823c 13fe 56bc 57d9 aabd c6ff 15bc
00000140: 8e1c 153b 7140 aaba ac9c 87bc b1b1 223c
00000150: e694 753c 58e9 a0bd 5194 a1bd 5ebc 18bd
00000160: 4686 75bd 0aaa c2ba f981 183d 74c0 643d
00000170: e014 f4bc c7b2 62bd 4e24 a7bd ca77 11bd
00000180: b375 5e3c 7477 173d 286d 1cbd 3fa5 fb3c
00000190: 5902 66bd dcbd cfbc 28d3 8a3c 60ee 303d
000001a0: 0940 0b3d 885d febc d51e 35bd c830 48bc
000001b0: e983 13bd c360 38bd 3dff 163c 6e9b 923c
000001c0: 48a1 4abc 677f 2bbd c83d a2bc 3d3a 29bd
000001d0: 6451 4bbc 623c b2bb 988e 083c e4a3 753c
000001e0: 2cfc cebd 78df 063d e2a5 14bd 761d fcbc
000001f0: bfaf 68bb e6ca b33c ae3e 80bd 1fd4 89bc

network_body._body_endoder.seq_layers.0.weight f4 [128, 136]
-0.07004769 -0.1861235 0.11144127 -0.13169135 -0.04934914 0.09862462 0.03349347 0.14632563
0.05897771 -0.27968988 0.020314774 0.092406645 0.24871889 -0.022010775 -0.025712071 -0.12637396
0.025532672 -0.11330012 0.049775384 0.04866433 -0.002246922 -0.17592442 -0.053340673 -0.08303685
0.020914577 -0.1314148 -0.011558521 -0.08879678 -0.090192564 0.14854413 0.07976968 -0.024009297
0.23636313 0.0162871 0.05098915 -0.1921619 -0.08408325 -0.034533184 0.03821993 -0.25221837
-0.040106364 -0.09019549 -0.029204044 -0.16821232 -0.0051528127 -0.15544449 0.14251103 -0.04984718
-0.014324781 0.059649426 -0.12644194 -0.15687768 0.14451757 -0.11399212 -0.18225856 -0.09627398
0.005269397 0.076729044 0.06365651 -0.029100094 0.05150688 0.08938502 -0.041028347 0.065938435
-0.15444595 0.12627631 0.0584683 -0.022034844 -0.125664 -0.044846684 -0.1302112 0.08467588
-0.06829756 -0.14223838 -0.20780146 0.065455355 0.002042077 -0.12115731 -0.19180514 -0.102882
-0.018322898 0.11214547 0.0929672 -0.16611768 -0.09082386 0.0436463 0.0050661676 -0.14549011
-0.1502696 -0.07239305 -0.15450491 0.026378633 0.011195448 -0.1358043 -0.020603536 0.10271773
0.07665445 0.0015802486 -0.029875496 0.11406394 -0.03970493 0.0042731264 -0.17331661 0.080584005
-0.12161865 0.00036282814 0.12744299 0.09120736 -0.0176908 0.048395593 0.028328035 -0.25315055
-0.006540806 0.011556532 0.15230297 0.04589581 -0.1730062 0.15574929 0.09725675 -0.24093412
-0.058370017 0.045491986 0.09202528 0.18233885 0.003454829 0.01212154 0.008949142 0.013040701
-0.011873305 0.017994765 0.0022704746 0.009202169 0.13298959 0.089147866 0.04855451 -0.10690563
-0.1917815 0.08974564 -0.033840902 -0.02838994 -0.2347807 0.13943064 0.08975967 0.027530836
0.046221096 -0.18694389 0.06488454 -0.093160965 -0.1930107 -0.12604308 0.051512524 0.14783937
-0.039480854 -0.045916036 -0.12575896 -0.037247162 -0.19560964 -0.08017192 -0.023720497 -0.06252546
0.010256591 -0.1546102 -0.0887362 0.110260166 0.24571614 -0.39370427 -0.074731655 0.02482537
-0.09348588 0.11959961 0.03957313 -0.042676266 0.15955079 -0.23335104 -0.061727248 0.29412612
0.12436834 0.15842168 0.09546559 0.14536352 -0.037252754 0.22885194 0.09238933 0.010423134
-0.17917705 -0.11765488 -0.04644936 0.18689999 -0.11781487 -0.09383029 0.118065365 0.111647926
-0.024386844 0.11855508 0.102769725 0.0849893 0.2541053 0.005763879 0.0062581324 -0.018556084
0.06589949 -0.0046383357 -0.1487985 0.11883961 0.11428073 0.2639043 -0.00097637635 -0.2812108
-0.19083521 0.09123637 0.23634534 -0.09049941 -0.031898145 -0.02432074 -0.04591095 -0.08422875
0.054553594 -0.17016917 0.09333443 0.020336445 0.17383674 0.023984553 0.122875124 0.046490643
0.095753394 -0.010889096 0.05942172 -0.12015473 -0.25994512 -0.10507026 -0.12328274 -0.32865262
-0.22013947 -0.25098577 -0.09640193 0.22429366 0.037084036 0.117748596 0.1875356 -0.12970117
-0.058831435 0.099382445 0.091037564 -0.029914603 -0.2368214 0.064805456 -0.28776953 0.13437447
0.15014479 -0.050293542 -0.30085313 0.11406883 -0.0893214 -0.15116717 -0.19167618 0.013428405
00000000: 2a75 8fbd 2997 3ebe 523b e43d 19da 06be
00000010: 5322 4abd b4fb c93d 7330 093d 63d6 153e
00000020: 9c92 713d 8333 8fbe 2b6b a63c b23f bd3d
00000030: 2ab0 7e3e f14f b4bc 1fa2 d2bc 2d68 01be
00000040: e529 d13c e509 e8bd 46e1 4b3d 4054 473d
00000050: 1941 13bb 8825 34be c07b 5abd 390f aabd
00000060: 0c55 ab3c 9a91 06be f35f 3dbc 16db b5bd
00000070: e1b6 b8bd f41b 183e 495e a33d 25af c4bc
00000080: 2d09 723e 866c 853c 00da 503d 17c6 44be
00000090: d733 acbd ab72 0dbd 808c 1c3d c422 81be
000000a0: 9246 24bd 6ab8 b8bd 523d efbc da3f 2cbe
000000b0: edd8 a8bb d72c 1fbe 69ee 113e 8e2c 4cbd
000000c0: 7cb2 6abc f552 743d ff79 01be 8ba4 20be
000000d0: 6afc 133e b374 e9bd fda1 3abe 4b2b c5bd
000000e0: e8aa ac3b 1e24 9d3d 585e 823d 5263 eebc
000000f0: e1f8 523d 7e0f b73d 570d 28bd bb0a 873d
00000100: 1427 1ebe 944e 013e 757c 6f3d 6b82 b4bc
00000110: 10ae 00be 28b1 37bd 1656 05be 8c6a ad3d
00000120: 97df 8bbd f0a6 11be e8c9 54be 750d 863d
00000130: 5ed4 053b 5321 f8bd 9168 44be ccb3 d2bd
00000140: e719 96bc 86ac e53d 9665 be3d c11a 2abe
00000150: dc01 babd 76c6 323d 1802 a63b 5cfb 14be
00000160: 46e0 19be cf42 94bd 8936 1ebe 0118 d83c
00000170: 1d6d 373c 4810 0bbe bfc8 a8bc ac5d d23d
00000180: 02fd 9c3d 5820 cf3a 75bd f4bc 5b9a e93d
00000190: a3a1 22bd 9505 8c3b e979 31be 3a09 a53d
000001a0: 3313 f9bd f839 be39 6a80 023e edca ba3d
000001b0: 4cec 90bc 753a 463d 3210 e83c f39c 81be
000001c0: 4254 d6bb 9c57 3d3c 4ff5 1b3e 3ffd 3b3d
000001d0: 8a28 31be be7c 1f3e 8c2e c73d 6fb7 76be
000001e0: 6615 6fbd ce55 3a3d c077 bc3d 09b7 3a3e
000001f0: 6a6a 623b 6c99 463c 6c9f 123c aaa8 553c
00000200: 4088 42bc c269 933c 3ecc 143b b2c4 163c
00000210: 6c2e 083e 2893 b63d 18e1 463d 57f1 dabd
00000220: 5f62 44be 90cc b73d c29c 0abd 0592 e8bc
00000230: 5a6a 70be e8c6 0e3e ebd3 b73d 5988 e13c
00000240: 5552 3d3d 386e 3fbe 30e2 843d 2dcb bebd
00000250: 99a4 45be 7011 01be ccfe 523d 3463 173e
00000260: adb6 21bd 7412 3cbd f5c6 00be 7b90 18bd
00000270: e54d 48be 2d31 a4bd 7d51 c2bc 590d 80bd
00000280: 430b 283c 2352 1ebe 53bb b5bd 15d0 e13d
00000290: 039d 7b3e 9b93 c9be e90c 99bd 935e cb3c
000002a0: 8675 bfbd a4f0 f43d 6f17 223d 4fcd 2ebd
000002b0: 4861 233e 93f3 6ebe b6d5 7cbd b397 963e
000002c0: d4b4 fe3d 4b39 223e 7783 c33d 2dda 143e
000002d0: 5896 18bd 2a58 6a3e 9e36 bd3d cbc5 2a3c
000002e0: 307a 37be 0bf5 f0bd af41 3ebd b662 3f3e
000002f0: ec48 f1bd 182a c0bd 41cc f13d aba7 e43d
00000300: ebc6 c7bc 01cd f23d ef78 d23d df0e ae3d
00000310: 171a 823e ecde bc3b 0511 cd3b ee02 98bc
00000320: 50f6 863d 2efd 97bb a25e 18be 2e62 f33d
00000330: 040c ea3d 771e 873e 82f3 7fba ddfa 8fbe
00000340: 4e6a 43be 22da ba3d 8304 723e c157 b9bd
00000350: a1a7 02bd 4a3c c7bc 1f0d 3cbd 1f80 acbd
00000360: 9773 5f3d d440 2ebe 1f26 bf3d 9e98 a63c
00000370: 4202 323e 417b c43c f4a5 fb3d f96c 3e3d
00000380: 5b1a c43d 2e68 32bc 3164 733d af13 f6bd
00000390: 8717 85be 142f d7bd a97b fcbd 2845 a8be
000003a0: 3e6c 61be 3581 80be 606e c5bd 3dad 653e
000003b0: 6ee5 173d 2d26 f13d 5509 403e 62d0 04be
000003c0: 3bf9 70bd 0689 cb3d e771 ba3d 780f f5bc
000003d0: 4f81 72be b9b8 843d 8756 93be 7699 093e
000003e0: 8ebf 193e 9a00 4ebd 6c09 9abe eb9c e93d
000003f0: 23ee b6bd 91cb 1abe c346 44be d002 5c3c

network_body._body_endoder.seq_layers.2.bias f4 [128]
-0.04592077 -0.025566317 0.031590454 -0.0058861817 -0.012581172 -0.008057745 -0.023920955 0.009946592
-0.07220433 -0.016660044 -0.10065047 0.030103141 0.010039585 0.00022754425 -0.16810372 0.011744363
0.0020857218 -0.008915028 0.00053437124 0.00783559 -0.012439443 0.06638434 -0.019044751 0.015553291
-0.03561031 -0.11174559 -0.017406682 -0.027454909 -0.09166003 -0.024817735 -0.04691804 -0.099231035
-0.013596398 -0.001969505 -0.101532966 -0.03587044 0.003438648 0.0070665563 -0.012637552 -0.017141959
-0.032678336 0.004722481 -0.03258554 -0.11340784 -0.07514928 0.0038016206 -0.02139061 -0.071169436
-0.020629998 0.010945898 -0.028509881 -0.07151987 0.026771994 0.045433905 -0.038771313 -0.023136644
-0.013821954 -0.00441447 -0.0745894 -0.052455083 -0.002900939 0.015922729 -0.01009237 -0.046667684
-0.030512944 0.013422262 -0.039559208 -0.03767313 -0.04363737 -0.041685097 -0.08623436 0.023544654
0.03733805 -0.011941917 -0.046632882 -0.06305496 -0.031099226 -0.040796053 -0.016975638 0.03824598
-0.0002996359 0.016080897 -0.04966227 -0.05388516 -0.019357389 -0.029462181 0.050660595 -0.00080752006
0.0025879105 -0.01474409 -0.0037261413 0.005869981 -0.04272073 -0.023604251 0.014992545 0.016162643
-0.018800007 -0.010407015 -0.032033943 0.015075973 0.03764516 -0.02522792 0.05570101 0.050812773
-0.05166578 -0.03428381 0.0009372478 -0.0042184177 -0.012464114 -0.03311073 -0.12908296 -0.06563812
0.004842556 -0.022178177 0.07412523 0.05715334 -0.0066840807 -0.11503655 -0.009752238 -0.06407404
-0.042925593 -0.026904257 -0.040622704 -0.030103916 -0.037283797 -0.029609866 0.016462332 -0.037791196
00000000: 6b17 3cbd 7470 d1bc fe64 013d dfe0 c0bb
00000010: 4321 4ebc a204 04bc e1f5 c3bc 08f7 223c
00000020: dddf 93bd a57a 88bc d521 cebd dd9a f63c
00000030: 127d 243c f298 6e39 6223 2cbe 6e6b 403c
00000040: 9bb0 083b 5610 12bc 0c15 0c3a d960 003c
00000050: cece 4bbc 83f4 873d bd03 9cbc 3bd3 7e3c
00000060: 1edc 11bd dfda e4bd 7598 8ebc 1ee9 e0bc
00000070: 41b8 bbbd 904e cbbc 212d 40bd a439 cbbd
00000080: 6dc3 5ebc d012 01bb 84f0 cfbd e2ec 12bd
00000090: f15a 613b 928e e73b bc0d 4fbc 4b6d 8cbc
000000a0: b8d9 05bd 0bbf 9a3b 6a78 05bd 5f42 e8bd
000000b0: dee7 99bd 9c24 793b 5c3b afbc 48c1 91bd
000000c0: 3e00 a9bc 6c56 333c 8e8d e9bc 0279 92bd
000000d0: f150 db3c e718 3a3d abce 1ebd 0f89 bdbc
000000e0: 7a75 62bc 42a7 90bb 54c2 98bd 24db 56bd
000000f0: ae1d 3ebb 6270 823c 785a 25bc 9d26 3fbd
00000100: 48f6 f9bc 0ce9 5b3c d608 22bd 244f 1abd
00000110: 19bd 32bd febd 2abd a49b b0bd b8e0 c03c
00000120: c8ef 183d 08a8 43bc 1f02 3fbd f522 81bd
00000130: cec3 febc c319 27bd 7e10 8bbc d1a7 1c3d
00000140: 7318 9db9 16bc 833c aa6a 4bbd afb6 5cbd
00000150: 6393 9ebc ac5a f1bc 7c81 4f3d c1af 53ba
00000160: ef99 293b 3291 71bc 4732 74bb f858 c03b
00000170: effb 2ebd b45d c1bc 4ba3 753c 8567 843c
00000180: 7902 9abc 2f82 2abc 0636 03bd 3701 773c
00000190: d031 1a3d c8aa cebc be26 643d 0e21 503d
000001a0: 7f9f 53bd 2e6d 0cbd a3b1 753a a73a 8abb
000001b0: 4936 4cbc 1e9f 07bd 532e 04be 476d 86bd
000001c0: 4eae 9e3b 02af b5bc f8ce 973d 9f19 6a3d
000001d0: 2206 dbbb 4898 ebbd dac7 1fbc 4039 83bd
000001e0: bfd2 2fbd 5166 dcbc fe63 26bd 7d9c f6bc
000001f0: e5b6 18bd 6490 f2bc 03dc 863c f1ca 1abd

network_body._body_endoder.seq_layers.2.weight f4 [128, 128]
0.052487224 0.2721447 -0.1149893 -0.06801542 -0.062235896 0.040950026 0.042413276 -0.0826429
-0.09732863 -0.26470807 -0.17614508 0.010425087 -0.15405174 0.044659376 0.19479485 -0.15614514
0.036591448 -0.01741873 0.098430224 -0.013671255 -0.12627795 0.0041453904 -0.13307542 -0.044433214
-0.056463562 0.04018236 -0.10215803 -0.1905446 -0.18455794 0.040845737 0.12691933 -0.15897548
0.1180678 0.047593974 -0.012073179 0.03141997 -0.14082588 -0.086199984 -0.009785952 0.0052505042
0.10056903 -0.04203805 -0.068404764 0.14043565 -0.037387237 -0.12154681 -0.02874165 -0.094228186
-0.08430701 -0.057777274 -0.09277968 -0.08911447 -0.08847755 0.030993517 -0.037588775 0.00031404456
-0.048073627 0.025918666 -0.00086206297 -0.28856248 -0.121028185 -0.16703726 0.02054485 -0.05520219
0.011322286 -0.043861967 0.040096033 -0.1671162 0.07038486 -0.018417303 -0.0041816095 -0.07291115
-0.08550314 -0.042157143 -0.010631516 0.06921881 -0.086824045 -0.087347224 -0.10626612 -0.044820677
0.111513205 0.032075714 -0.24026102 -0.20827648 0.088926844 -0.07239365 -0.03184611 -0.21335399
-0.0070449705 0.10120394 -0.112644516 0.07238702 -0.037935555 0.091872364 -0.1428713 -0.18859154
0.047836732 -0.08534019 -0.13453998 -0.09127841 -0.14852731 -0.007715075 -0.049433287 -0.0578279
0.009122294 -0.23852293 0.05740317 -0.015151247 -0.054786544 0.05124725 -0.26001316 0.13343093
-0.046434123 0.0032755043 0.06705453 0.11447853 -0.119951524 0.032869328 -0.07448777 -0.14331199
-0.13108104 -0.0040692403 -0.20221068 -0.030772831 -0.17939246 -0.19713056 0.092100345 0.0141773205
-0.122202136 0.10035949 -0.11765481 0.13409814 -0.17513177 -0.03169334 -0.058018576 -0.049355935
-0.24438135 0.06230611 -0.058533512 -0.018167809 0.075276256 0.0014431555 0.0797049 -0.08953727
0.0065457053 -0.108083874 -0.055100452 0.015104933 -0.21289986 -0.093749 -0.16179013 0.055037294
0.032921463 -0.079464346 -0.023043366 -0.07988602 -0.034320936 0.17336282 -0.029599896 0.09263761
0.042864755 -0.16826037 0.027227007 0.16251999 -0.2735326 -0.10228727 0.0009826282 -0.2065859
0.05976526 0.057192884 -0.0015600782 0.008957826 -0.051739573 0.038357016 0.07716632 0.082535006
-0.09480734 -0.2875989 0.10169545 -0.11622754 -0.051339637 -0.06058736 -0.11145796 0.20331325
0.057650093 -0.02593105 -0.04080699 -0.09742088 0.025141979 -0.08544528 -0.08575953 0.15318783
-0.037035733 0.05722251 0.071821 -0.31522295 0.10436654 -0.05684653 -0.22423027 -0.1476741
-0.11066216 -0.08520146 0.15045261 0.057416566 0.055167254 -0.009518592 -0.040379506 0.17521761
-0.012634051 0.0954158 -0.041717418 0.03234257 0.13401239 -0.03224776 -0.044800196 -0.061703317
-0.030887373 0.110755436 -0.081364684 0.12562247 -0.266391 -0.083813444 -0.02399527 0.0027814538
0.06269632 -0.062740445 -0.093396105 0.085808165 0.01699855 -0.048057254 -0.19754319 0.08644538
-0.11095737 -0.169236 0.11262019 0.04630583 -0.11833259 0.14451082 -0.23362923 0.10252119
-0.09622396 -0.041296307 0.0009596602 0.0314811 0.06331856 -0.03637216 -0.19184206 -0.04070799
0.020489201 -0.1557057 0.010995458 -0.105378464 0.056912135 0.021615475 -0.13624784 -0.256071
00000000: d8fc 563d 8d56 8b3e 837f ebbd ab4b 8bbd
00000010: 11eb 7ebd 37bb 273d 8bb9 2d3d ae40 a9bd
00000020: 3c54 c7bd d187 87be 605f 34be fccd 2a3c
00000030: bdbf 1dbe c0ec 363d 4d78 473e 83e4 1fbe
00000040: eae0 153d b9b1 8ebc c995 c93d 66fd 5fbc
00000050: 024f 01be 0ed6 873b ec44 08be 9aff 35bd
00000060: 5646 67bd 4296 243d 3b38 d1bd 201e 43be
00000070: c2fc 3cbe dc4d 273d 24f7 013e 78ca 22be
00000080: 88cd f13d e6f1 423d 95ce 45bc 3ab2 003d
00000090: a934 10be 9e89 b0bd 4255 20bc 6c0c ac3b
000000a0: 23f7 cd3d 1730 2cbd cc17 8cbd 5dce 0f3e
000000b0: 5c23 19bd 89ed f8bd 9c73 ebbc b5fa c0bd
000000c0: 27a9 acbd dda7 6cbd 4603 bebd a681 b6bd
000000d0: b833 b5bd 1ee6 fd3c b0f6 19bd 59a6 a439
000000e0: dae8 44bd 6253 d43c 11fc 61ba 76be 93be
000000f0: a0dd f7bd d10b 2bbe ac4d a83c b11b 62bd
00000100: 1c81 393c 9ba8 33bd bd3b 243d 8220 2bbe
00000110: f025 903d e2df 96bc e205 89bb 7152 95bd
00000120: 451c afbd f8ac 2cbd cf2f 2ebc 97c2 8d3d
00000130: ced0 b1bd 1ae3 b2bd 0da2 d9bd e395 37bd
00000140: 0961 e43d d361 033d fc06 76be 6e46 55be
00000150: 471f b63d 1f43 94bd 1171 02bd 7879 5abe
00000160: 7fd9 e6bb 0344 cf3d 2bb2 e6bd a53f 943d
00000170: 5062 1bbd 9427 bc3d db4c 12be 241e 41be
00000180: 73f0 433d d6c6 aebd d9c4 09be 2df0 babd
00000190: 8b17 18be bdce fcbb 8f7a 4abd f3dc 6cbd
000001a0: ad75 153c 5b3f 74be 961f 6b3d f03c 78bc
000001b0: db67 60bd a3e8 513d 7220 85be 1ea2 083e
000001c0: b531 3ebd d8a9 563b e353 893d b873 ea3d
000001d0: 25a9 f5bd fda1 063d 0b8d 98bd 61c0 12be
000001e0: 1c3a 06be 4357 85bb 5110 4fbe 4e17 fcbc
000001f0: a8b2 37be 98dc 49be 1b9f bc3d fe47 683c
00000200: 1d45 fabd 4789 cd3d 01f5 f0bd 0651 093e
00000210: be55 33be e0d0 01bd e3a4 6dbd 7329 4abd
00000220: 1b3f 7abe b134 7f3d d6c0 6fbd a8d4 94bc
00000230: 702a 9a3d 4328 bd3a 533c a33d 515f b7bd
00000240: 5b7d d63b 145b ddbd 03b1 61bd ae7a 773c
00000250: 6c02 5abe 7aff bfbd 50ac 25be c96e 613d
00000260: a8d8 063d 34be a2bd 71c5 bcbc 489b a3bd
00000270: 1c94 0cbd 0686 313e 7b7b f2bc cab8 bd3d
00000280: f492 2f3d 724c 2cbe 2c0b df3c a46b 263e
00000290: 770c 8cbe fd7b d1bd 88cb 803a 418b 53be
000002a0: 6bcc 743d 1643 6a3d 8a7b ccba d8c3 123c
000002b0: e0ec 53bd 3f1c 1d3d 6009 9e3d 1d08 a93d
000002c0: 5a2a c2bd 2a40 93be b445 d03d b408 eebd
000002d0: 8349 52bd 742a 78bd 1244 e4bd 5931 503e
000002e0: 8122 6c3d 5a6d d4bc 3b25 27bd 9984 c7bd
000002f0: 8df6 cd3c effd aebd b1a2 afbd 45dd 1c3e
00000300: c8b2 17bd 2762 6a3d e316 933d e764 a1be
00000310: 20be d53d e8d7 68bd 9f9c 65be e137 17be
00000320: d8a2 e2bd 1a7e aebd 4010 1a3e a22d 6b3d
00000330: 0ff7 613d def3 1bbc fb64 25bd 3f6c 333e
00000340: 0dff 4ebc 5c69 c33d e2df 2abd a579 043d
00000350: 8b3a 093e 3a16 04bd 6980 37bd 9ebc 7cbd
00000360: 8407 fdbc bfd3 e23d 87a2 a6bd 2da3 003e
00000370: 6764 88be 62a6 abbd ba91 c4bc 0d49 363b
00000380: ee66 803d 107e 80bd 7546 bfbd 31bc af3d
00000390: 8b40 8b3c afd7 44bd c348 4abe 460a b13d
000003a0: 9e3d e3bd 344c 2dbe 6aa5 e63d 2fab 3d3d
000003b0: 5b58 f2bd a5fa 133e 803c 6fbe a1f6 d13d
000003c0: 1111 c5bd 5126 29bd b591 7b3a 53f2 003d
000003d0: 29ad 813d f9fa 14bd 3f72 44be 6cbd 26bd
000003e0: f8d8 a73c 5171 1fbe 4b26 343c aad0 d7bd
000003f0: b31c 693d f012 b13c 8e84 0bbe bd1b 83be

network_body.observation_encoder.processors.0.conv_layers.0.bias f4 [16]
-0.069094814 0.03542668 0.013382145 -0.07150574 -0.019062253 -0.04087718 0.016094942 -0.026089486
0.026509995 -0.06550135 0.018077401 0.0071755545 0.01634278 0.033605073 0.0024322753 0.043660425
00000000: 9581 8dbd 911b 113d c940 5b3c 9a71 92bd
00000010: 7128 9cbc d46e 27bd 8ad9 833c 9eb9 d5bc
00000020: 7d2b d93c 9225 86bd 0f17 943c ea20 eb3b
00000030: 4be1 853c 79a5 093d cf66 1f3b 46d5 323d

network_body.observation_encoder.processors.0.conv_layers.0.weight f4 [16, 3, 8, 8]
-0.080488235 -0.095449656 -0.042412564 0.1337597 0.04165428 -0.14500877 -0.044946514 0.023428665
-0.0741223 -0.086990476 -0.11768801 -0.021792809 -0.008589325 0.06815139 0.0019782572 0.1008114
-0.04372543 -0.051538527 0.050643694 -0.026124079 -0.19632143 0.06135752 0.017202979 -0.05351895
0.06687974 0.09545843 0.044291537 0.083270386 0.05868834 -0.017563216 -0.040069256 -0.016244814
0.07524424 0.12627412 0.109208666 0.20050956 0.15530658 0.047792185 -0.15939672 -0.03535001
-0.0383817 -0.12730458 0.03603399 0.30094412 0.14217868 -0.050852668 -0.19355543 0.06172739
-0.18427761 0.05770211 0.10146018 0.0860795 0.024668595 -0.13913056 -0.012347954 -0.12328043
-0.031285416 -0.050197653 0.09653215 -0.0056698187 -0.073596016 0.009757197 -0.0035879465 -0.08436618
-0.07785567 -0.06727028 0.020043978 0.021779373 0.004189872 -0.06168136 -0.12572594 -0.03476668
-0.1783063 -0.16038254 -0.07499497 -0.07753238 -0.077335164 0.0025568793 -0.05994326 -0.0395497
-0.14388731 -0.2035045 -0.06505056 -0.0122407945 0.00925276 -0.017942108 -0.05049882 -0.18519694
-0.21036966 -0.021227531 -0.03283795 0.10280341 0.12903838 0.052456327 -0.02588122 -0.014438401
-0.015965546 0.052398708 -0.055025056 -0.029323766 0.11115353 0.083316624 0.047442645 -0.07140407
-0.040287152 0.045348275 0.08430091 0.044254985 0.098852806 0.072190136 -0.021867491 0.011074014
0.03930818 0.05598015 -0.0035887912 0.17634317 0.19111961 0.099289656 0.07711236 0.14155166
-0.014346899 0.02884511 0.10014975 0.16435075 0.10336733 0.16800751 0.015520779 0.08197586
-0.046609573 0.0079222545 0.031910595 -0.039313525 -0.04137705 -0.02657715 -0.10955429 -0.018384801
-0.013188211 0.050839532 -0.045603387 0.083943695 -0.07675805 0.0019870142 0.033611126 0.0895319
-0.036717728 0.022294965 -0.16678475 -0.09427559 -0.06707194 0.059890795 -0.07353556 -0.066591956
0.041202478 0.022584658 -0.06447543 -0.06702368 0.026693804 0.14987144 0.04486723 -0.03974971
-0.05487341 0.061553434 0.10164748 -0.1017302 -0.017252084 0.114212535 0.18080625 0.03327707
0.037834562 0.19719577 -0.035628974 -0.1408584 0.04350833 0.26356193 0.1648525 0.02757998
-0.018078376 0.045095325 0.09271569 -0.12845953 0.045118343 0.066344514 0.0974866 -0.044594824
0.08632445 0.1379343 0.1572833 0.059924632 -0.023793971 0.114399426 0.06695744 -0.12115642
0.08051973 0.049347706 0.02156987 0.090272576 -0.076328635 0.056136325 0.06733366 0.06048065
0.017616019 0.06765143 0.08322207 0.05187726 -0.066228546 0.04487619 0.09352311 0.124865286
-0.08610379 -0.21288969 -0.035862416 -0.0072624944 0.07367849 0.06412741 0.13004276 0.096112154
-0.08056031 -0.09436518 -0.075769536 -0.057220433 -0.06596503 -0.06546118 0.16724664 0.07963669
-0.11580624 0.052781582 0.064905 0.002323045 -0.026391106 -0.035793465 -0.032146007 0.05427765
-0.04910063 0.2518951 0.14879413 0.07182905 0.047134005 0.030342782 0.15074654 -0.008144946
-0.07377612 0.028755995 0.10251194 0.09285873 -0.040695496 0.10051017 0.03513128 -0.056627043
-0.1719787 -0.08678958 0.06632193 0.0022671279 -0.052645545 -0.05519116 -0.09969667 0.0036493442
00000000: 04d7 a4bd 1c7b c3bd ccb8 2dbd 4ef8 083e
00000010: ae9d 2a3d 2e7d 14be d619 38bd 79ed bf3c
00000020: 6fcd 97bd 1028 b2bd 6906 f1bd d586 b2bc
00000030: 3dba 0cbc f592 8b3d a6a5 013b 3576 ce3d
00000040: 7019 33bd 101a 53bd c36f 4f3d 2a02 d6bc
00000050: 7c08 49be 0652 7b3d 43ed 8c3c b036 5bbd
00000060: 3ff8 883d b67f c33d 0b6b 353d aa89 aa3d
00000070: 2f63 703d bce0 8fbc a91f 24bd d813 85bc
00000080: a719 9a3d 014e 013e cba8 df3d 6152 4d3e
00000090: b008 1f3e bdc1 433d e538 23be 2ccb 10bd
000000a0: 2136 1dbd 225c 02be 6198 133d 5915 9a3e
000000b0: 4a97 113e e34a 50bd 6533 46be dcd5 7c3d
000000c0: 45b3 3cbe 0c59 6c3d 5bca cf3d 734a b03d
000000d0: cb15 ca3c 3e78 0ebe 134f 4abc 737a fcbd
000000e0: 2325 00bd 0e9c 4dbd a6b2 c53d e3c9 b9bb
000000f0: 82b9 96bd a7dc 1f3c c123 6bbb 2dc8 acbd
00000100: cb72 9fbd 00c5 89bd 4533 a43c a86a b23c
00000110: 324b 893b 98a5 7cbd 4dbe 00be 8267 0ebd
00000120: ed95 36be 523b 24be f696 99bd 4cc9 9ebd
00000130: e661 9ebd 5191 273b 1087 75bd defe 21bd
00000140: 3257 13be 7c63 50be 3a39 85bd 9d8d 48bc
00000150: e398 173c 54fb 92bc dad7 4ebd 44a4 3dbe
00000160: 256b 57be 5ce5 adbc 1681 06bd 988a d23d
00000170: a322 043e 72dc 563d da04 d4bc 0b8f 6cbc
00000180: 2dca 82bc 07a0 563d f461 61bd 6538 f0bc
00000190: 76a4 e33d e8a1 aa3d 3853 423d 4c3c 92bd
000001a0: 2404 25bd 1dbf 393d f5a5 ac3d b744 353d
000001b0: 5773 ca3d 6cd8 933d 7423 b3bc c86f 353c
000001c0: 9d01 213d 714b 653d ed31 6bbb 4e93 343e
000001d0: dcb4 433e 6058 cb3d 16ed 9d3d ebf2 103e
000001e0: 420f 6bbc 954c ec3c 501b cd3d 904b 283e
000001f0: 40b2 d33d 290a 2c3e de4a 7e3c f6e2 a73d
00000200: aee9 3ebd 58cc 013c afb4 023d 3807 21bd
00000210: fb7a 29bd 53b8 d9bc 005e e0bd b99b 96bc
00000220: 5e13 58bc 1d3d 503d 9eca 3abd acea ab3d
00000230: 5333 9dbd 9138 023b d2ab 093d 805c b73d
00000240: 5465 16bd eea3 b63c 9fc9 2abe 8f13 c1bd
00000250: 035d 89bd 0d50 753d d099 96bd 5d61 88bd
00000260: eec3 283d 7603 b93c b20b 84bd b643 89bd
00000270: f7ac da3c e677 193e b3c6 373d 98d0 22bd
00000280: f1c2 60bd 741f 7c3d 8e2c d03d ec57 d0bd
00000290: 3e54 8dbc 43e8 e93d 4625 393e 894d 083d
000002a0: 6af8 1a3d b0ed 493e b0ef 11bd 2f3d 10be
000002b0: ca35 323d 97f1 863e 18cf 283e 69ef e13c
000002c0: 1a19 94bc e0b5 383d b9e1 bd3d e58a 03be
000002d0: 03ce 383d a2df 873d 0ea7 c73d 10a9 36bd
000002e0: e0ca b03d a63e 0d3e e00e 213e 8873 753d
000002f0: 93eb c2bc 3f4a ea3d fb20 893d db20 f8bd
00000300: 87e7 a43d d220 4a3d 4cb3 b03c d4e0 b83d
00000310: 3052 9cbd 34ef 653d 3be6 893d 8fba 773d
00000320: 784f 903c d58c 8a3d 5570 aa3d 407d 543d
00000330: d5a2 87bd 19d0 373d 0b89 bf3d 5fb9 ff3d
00000340: 2f57 b0bd c1ff 59be 78e4 12bd 38fa edbb
00000350: c0e4 963d 3b55 833d ee29 053e 73d6 c43d
00000360: cefc a4bd 8842 c1bd 0f2d 9bbd f95f 6abd
00000370: ac18 87bd 8310 86bd b442 2b3e 9018 a33d
00000380: d22b edbd 8031 583d eaec 843d 3a3e 183b
00000390: 2932 d8bc 2b9c 12bd 88ab 03bd 3e52 5e3d
000003a0: be1d 49bd 65f8 803e 7d5d 183e 1c1b 933d
000003b0: 960f 413d 6d91 f83c 4d5d 1a3e 6172 05bc
000003c0: ef17 97bd b191 eb3c c8f1 d13d b82c be3d
000003d0: 52b0 26bd 47d8 cd3d d1e5 0f3d c2f1 67bd
000003e0: 2f1b 30be bcbe b1bd cbd3 873d 1894 143b
000003f0: dba2 57bd 2010 62bd c52d ccbd d629 6f3b

network_body.observation_encoder.processors.0.conv_layers.2.bias f4 [32]
0.015747927 -0.0072209802 -0.039172217 0.06391544 0.037190028 0.031535555 0.03523242 -0.019518629
0.07822373 -0.07311117 0.017962217 0.006958594 -0.052529894 -0.02727543 -0.038514525 -0.0530568
-0.041410446 0.008814706 0.022112638 -0.01578711 -0.004349547 0.061154682 -0.06070737 -0.02423714
-0.015718797 0.055392932 0.025568513 0.06200431 0.024784062 -0.036768414 -0.07126 -0.031889305
00000000: cc01 813c f99d ecbb 0c73 20bd 19e6 823d
00000010: 9254 183d 6d2b 013d df4f 103d 88e5 9fbc
00000020: c333 a03d 4fbb 95bd 8025 933c eb04 e43b
00000030: 9629 57bd b970 dfbc 68c1 1dbd 1652 59bd
00000040: 009e 29bd 8e6b 103c 9025 b53c f853 81bc
00000050: a586 8ebb 557d 7a3d 4ba8 78bd f78c c6bc
00000060: b5c4 80bc b3e3 623d 0f75 d13c 3bf8 7d3d
00000070: f207 cb3c 7a9a 16bd c3f0 91bd 5c9e 02bd

network_body.observation_encoder.processors.0.conv_layers.2.weight f4 [32, 16, 4, 4]
0.25678614 0.014997479 0.026615253 0.013384918 0.0026315043 -0.033631302 0.09857534 -0.02337502
0.038589068 -0.00041506637 -0.03377895 -0.034240954 -0.1112209 0.03410362 0.047762536 0.04053521
0.027460247 0.032419 -0.0135525465 -0.10862435 0.009553121 0.082193844 0.050560705 0.055634476
-0.016182365 -0.0062587643 0.024137521 -0.10616175 -0.13975014 -0.06279117 0.13773772 -0.051512577
0.05469648 -0.02085704 -0.0039544497 0.08616168 -0.014595861 0.18701442 -0.007545356 -0.04269737
-0.04446931 0.083678775 0.040746152 0.024960669 0.014785187 0.06663233 -0.07431233 -0.13922632
0.18855971 -0.00669908 -0.17912486 -0.03575715 0.1147703 0.071508355 -0.069409445 -0.02811979
-0.029338483 -0.046232685 -0.033918597 -0.03451551 -0.005435075 -0.078884214 -0.0073557408 -0.10177841
0.098759614 0.0029842928 -0.06714118 0.03489115 0.10334238 -0.013736797 0.00096262957 0.10721076
-0.16474351 0.13734499 0.09827048 -0.026436016 -0.093400136 -0.120475516 0.07259095 -0.19355896
0.15865871 0.16856454 -0.058662705 0.0050306497 0.055108998 -0.037176058 0.13046452 -0.05200284
0.010994337 0.034286417 -0.0030591758 -0.04536928 -0.019532077 -0.016475009 0.03185209 -0.07848653
0.14795573 0.063891366 -0.05767085 -0.04597026 -0.07873328 0.14138822 -0.0224405 0.19896826
-0.022924986 -0.05882468 0.03484363 0.14352399 0.09618451 -0.011992976 -0.051189046 0.03181252
0.24056177 -0.14428431 -0.12168602 -0.05134384 0.08351937 0.118149854 0.031660363 0.19821401
0.032185923 0.11276706 0.085431546 0.012185868 -0.06995391 -0.08954149 0.09621954 -0.07196527
-0.050813016 0.16919145 -0.016128939 -0.049114756 -0.015526783 0.14711623 0.028324476 0.0026327118
-0.0031016045 -0.0462132 0.074870184 -0.10978903 0.1828503 -0.032809302 0.021326292 0.16711485
0.03167176 0.019128552 -0.07515182 -0.042218875 0.109340675 -0.042918496 0.08579495 0.08591006
-0.0043959864 0.012600866 -0.038754772 0.08305648 0.004209695 -0.12161788 0.015827492 -0.035700962
-0.021978457 0.092757486 -0.029028941 -0.018812578 0.07342585 -0.19423695 0.043731004 0.123621345
-0.13724907 -0.03368493 0.13705012 -0.061200473 0.054140568 -0.03765061 -0.0062616067 0.1264031
-0.1238863 -0.013689177 -0.045104492 -0.103041485 0.13498594 0.024730776 -0.01438197 -0.0005781104
0.103878155 0.064674556 0.17972839 0.12966417 0.0566641 0.00063506886 -0.121322006 -0.0027693873
0.13243343 -0.10184006 -0.11338596 0.09239722 -0.0023856498 -0.006468282 0.0695808 -0.014562566
-0.07605879 -0.099044174 0.04748125 0.042403087 -0.037796445 -0.0694099 0.085960865 -0.1706445
0.08063174 0.055251896 -0.14509009 0.020605909 -0.062164452 0.0062755994 0.10026428 0.14056936
-0.10970108 -0.010990523 0.16180277 -0.077493936 0.033034638 0.03830359 0.03956373 0.1096497
0.06544444 0.05431346 0.0651199 0.08459395 -0.0046158326 -0.046904344 0.058392044 0.052308906
-0.007457075 -0.01850536 0.012333286 -0.07368198 0.03128967 -0.10058654 -0.011032358 -0.01827518
0.18694872 0.17970555 0.06992891 -0.004053664 -0.1727435 0.037261132 0.0013267228 0.027384084
-0.083912656 0.012279227 -0.07457975 0.030008191 0.051762365 -0.018303355 -0.019244127 0.10676411
00000000: 7979 833e fcb7 753c 3b08 da3c 6a4c 5b3c
00000010: 5175 2c3b fac0 09bd dee1 c93d f87c bfbc
00000020: 920f 1e3d 449d d9b9 cc5b 0abd 3e40 0cbd
00000030: c9c7 e3bd 3db0 0b3d a6a2 433d 4008 263d
00000040: 50f4 e03c c9c9 043d 800b 5ebc 7176 debd
00000050: b284 1c3c 3f55 a83d be18 4f3d fae0 633d
00000060: e190 84bc 5216 cdbb 0dbc c53c 556b d9bd
00000070: a91a 0fbe a898 80bd 1e0b 0d3e dafe 52bd
00000080: 6b09 603d 62dc aabc 5494 81bb 8975 b03d
00000090: 7a23 6fbc b580 3f3e 093f f7bb 70e3 2ebd
000000a0: 7425 36bd c75f ab3d 70e5 263d 517a cc3c
000000b0: 923d 723c 8876 883d 1031 98bd 5891 0ebe
000000c0: cc15 413e f583 dbbb 826c 37be 1776 12bd
000000d0: b10c eb3d f972 923d 8a26 8ebd 795b e6bc
000000e0: 4257 f0bc 7c5e 3dbd 3aee 0abd 2360 0dbd
000000f0: b718 b2bb 0c8e a1bd 6d08 f1bb 3371 d0bd
00000100: 7b42 ca3d 2094 433b 5181 89bd 06ea 0e3d
00000110: 2ba5 d33d 4d10 61bc fa58 7c3a 5191 db3d
00000120: 86b2 28be 2aa4 0c3e 0942 c93d 5890 d8bc
00000130: 9248 bfbd debb f6bd 90aa 943d 5234 46be
00000140: 6e77 223e 2f9c 2c3e 4e48 70bd 26d8 a43b
00000150: f9b9 613d ec45 18bd 7e98 053e ee00 55bd
00000160: 9721 343c ea6f 0c3d 747c 48bb 23d5 39bd
00000170: bc01 a0bc 99f6 86bc 5677 023d 8cbd a0bd
00000180: b581 173e 7ad9 823d 4538 6cbd 504b 3cbd
00000190: ea3e a1bd 13c8 103e 24d5 b7bc 56be 4b3e
000001a0: 2ecd bbbc 26f2 70bd 32b8 0e3d f4f7 123e
000001b0: 62fc c43d 307e 44bc 9bab 51bd d84d 023d
000001c0: d355 763e 44bf 13be 8536 f9bd eb4d 52bd
000001d0: 340c ab3d 8df8 f13d 4cae 013d 9df8 4a3e
000001e0: 63d5 033d 6bf2 e63d bcf6 ae3d 3ca7 473c
000001f0: ff43 8fbd 8761 b7bd c00e c53d 8762 93bd
00000200: 4f21 50bd 8640 2d3e d620 84bc 8e2c 49bd
00000210: 0c64 7ebc a3a5 163e bb08 e83c 9389 2c3b
00000220: 4a44 4bbb 0d4a 3dbd 8a55 993d 12d9 e0bd
00000230: 1c3d 3b3e 0c63 06bd 7ab4 ae3c 2820 2b3e
00000240: 3fba 013d 7bb3 9c3c 33e9 99bd b3ed 2cbd
00000250: 01ee df3d 4ecb 2fbd 43b5 af3d 9df1 af3d
00000260: 350c 90bb dd73 4e3c 53bd 1ebd 8419 aa3d
00000270: 7bf1 893b cc12 f9bd a8a8 813c 2c3b 12bd
00000280: 2a0c b4bc a3f7 bd3d 1ace edbc d61c 9abc
00000290: 4b60 963d 0de6 46be 481f 333d 302d fd3d
000002a0: 058b 0cbe 36f9 09bd de56 0c3e 59ad 7abd
000002b0: 80c2 5d3d 8737 1abd 2a2e cdbb d06f 013e
000002c0: 1ab8 fdbd 9248 60bc 7dbf 38bd 6a07 d3bd
000002d0: c139 0a3e 3298 ca3c 5ba2 6bbc 558c 17ba
000002e0: 12be d43d 1874 843d b80a 383e afc6 043e
000002f0: 9e18 683d c07a 263a ac77 f8bd 9c7e 35bb
00000300: a19c 073e 8591 d0bd e636 e8bd c13a bd3d
00000310: 9058 1cbb e2f3 d3bb 6180 8e3d d497 6ebc
00000320: b6c4 9bbd acd7 cabd b37b 423d dcae 2d3d
00000330: 72d0 1abd c726 8ebd 400c b03d 6fbd 2ebe
00000340: 4122 a53d d04f 623d 7f92 14be b9cd a83c
00000350: 27a0 7ebd 8ba3 cd3b 5c57 cd3d 6af1 0f3e
00000360: f6aa e0bd 9811 34bc a0af 253e 24b5 9ebd
00000370: 544f 073d 3ae4 1c3d 940d 223d 0690 e03d
00000380: bc07 863d ca77 5e3d 955d 853d 983f ad3d
00000390: 6940 97bb c51e 40bd 7f2c 6f3d dd41 563d
000003a0: 7b5a f4bb 8e98 97bc 8d11 4a3c 94e6 96bd
000003b0: 9929 003d 5100 cebd 10c1 34bc d5b5 95bc
000003c0: 7c6f 3f3e bb04 383e e336 8f3d 99d4 84bb
000003d0: ace3 30be 219f 183d 6ee5 ad3a 9654 e03c
000003e0: 66da abbd d02e 493c 45bd 98bd bdd3 f53c
000003f0: c604 543d ebf0 95bc dca5 9dbc 24a7 da3d

network_body.observation_encoder.processors.0.dense.0.bias f4 [128]
0.028406577 0.06132768 0.011680386 0.017499665 -0.021967018 0.049800094 0.027480803 0.028984923
-0.02320198 0.061891302 0.022673875 0.017779766 -0.006019895 -0.002087719 0.06730306 -0.010856543
-0.004812203 -0.025088832 -0.013627633 -0.015466644 0.04005789 -0.0077684326 -0.021803737 0.048356745
0.04099345 -0.032872245 -0.017723406 0.010668523 -0.018092193 0.053774487 -0.03704571 0.05150772
0.007681048 -0.041864067 -0.043739796 0.05407775 -0.0075031254 0.005197183 -0.04758596 0.06332201
4.0852337e-05 0.05537534 -0.06581214 0.04370644 0.04989 0.04779278 0.039812446 0.058744848
-0.0022716324 0.022965053 -0.02220691 -0.004394751 -0.032632586 0.10344538 0.017190637 0.027846899
0.0041508693 0.00705212 0.05558466 0.007510639 0.08077854 0.02249737 -0.029233947 0.020043898
0.056936327 0.09132258 0.026914971 0.06465142 0.0076240054 -0.027588835 0.047635034 0.0032372226
0.01392438 0.063107386 0.089524046 -0.07918302 -0.005564579 -0.016868018 0.05948041 -0.018971033
0.005558149 0.03460596 0.0130112525 0.03977747 0.09120178 -0.03496293 0.070614964 0.08280418
0.066232465 0.06583864 0.01443089 -0.048035003 0.05668647 0.030501593 0.011219489 0.042926725
0.030862054 0.013584442 -0.015662212 0.026224697 0.0074975765 -0.0056448956 -0.0011959018 0.040751103
0.035800535 0.018078728 -0.009784587 0.026698902 0.060033493 -0.0028590437 -0.0023997948 -0.04537945
0.013976147 0.05296506 0.038114738 0.07960018 0.092750855 0.06886677 0.015027185 0.033193093
0.052502435 0.025386577 0.001515694 -0.0028189316 0.028639236 0.021558851 0.026716646 0.03528775
00000000: e9b4 e83c bc32 7b3d 175f 3f3c 755b 8f3c
00000010: 2df4 b3bc 2ffb 4b3d 6c1f e13c ca71 ed3c
00000020: 1412 bebc bc81 7d3d 90be b93c dfa6 913c
00000030: 8a42 c5bb 1dd2 08bb 30d6 893d a4df 31bc
00000040: afaf 9dbb 1887 cdbc 7046 5fbc cf67 7dbc
00000050: be13 243d 568e febb c09d b2bc b911 463d
00000060: bfe8 273d 0ca5 06bd ad30 91bc 07cb 2e3c
00000070: 1436 94bc a342 5c3d 3ebd 17bd c2f9 523d
00000080: 4db1 fb3b a879 2bbd 8028 33bd a180 5d3d
00000090: c7dc f5bb 224d aa3b 7fe9 42bd f8ae 813d
000000a0: dd58 2b38 41d1 623d 84c8 86bd 8605 333d
000000b0: 7559 4c3d 5dc2 433d 6012 233d 709e 703d
000000c0: abdf 14bb 3521 bc3c 44eb b5bc d801 90bb
000000d0: bfa9 05bd 2cdb d33d 61d3 8c3c 2e1f e43c
000000e0: 0404 883b 7815 e73b beac 633d ce1b f63b
000000f0: 386f a53d 684c b83c 087c efbc 1a33 a43c
00000100: 1136 693d 5507 bb3d c97c dc3c f767 843d
00000110: cbd2 f93b fb01 e2bc f41c 433d 9527 543b
00000120: 1523 643c 723e 813d 6258 b73d b52a a2bd
00000130: 1257 b6bb cc2e 8abc bba1 733d 2469 9bbc
00000140: 2221 b63b fbbe 0d3d 262d 553c b3ed 223d
00000150: 00c8 ba3d 4a35 0fbd 949e 903d 3d95 a93d
00000160: e3a4 873d 69d6 863d 8a6f 6c3c 5ac0 44bd
00000170: 1230 683d 7ade f93c f3d1 373c efd3 2f3d
00000180: 6bd2 fc3c 4891 5e3c 0a4e 80bc 2dd5 d63c
00000190: 3bae f53b d1f8 b8bb cebf 9cba a1ea 263d
000001a0: 95a3 123d d719 943c 884f 20bc a8b7 da3c
000001b0: aee5 753d cb5e 3bbb e045 1dbb cddf 39bd
000001c0: 36fc 643c e4f1 583d 331e 1c3d 6b05 a33d
000001d0: 29f4 bd3d 050a 8d3d 9534 763c 7bf5 073d
000001e0: cb0c 573d 83f7 cf3c 40aa c63a d3bd 38bb
000001f0: d59c ea3c 309c b03c dedc da3c e389 103d

network_body.observation_encoder.processors.0.dense.0.weight f4 [128, 128]
-0.05423353 0.1498318 0.09088353 0.11820936 0.07940824 -0.15045223 -0.028928226 0.11562729
-0.061760277 0.2791122 -0.2599377 0.021040462 -0.03623457 0.015233274 0.11917718 0.14584836
-0.041617353 0.01305992 0.064461194 -0.011843613 -0.029206311 -0.02457438 -0.07486256 0.010131381
-0.032016028 0.020789105 -0.10735627 0.19541295 -0.018792238 0.023409326 0.07499959 0.05869137
-0.1323106 0.22910836 0.15288381 0.0043850355 -0.17606348 -0.19794342 -0.14507258 0.0075432076
-0.29821745 -0.09309706 0.12412266 0.29830366 0.054815903 0.007874904 -0.053043567 0.00203806
-0.041003417 -0.11051362 0.08826252 -0.15176882 0.03652713 0.080062166 -0.042367883 0.13884924
0.114362836 -0.3411091 -0.09926141 -0.25494242 0.17093381 -0.0010032873 -0.24786165 -0.19328544
0.25163996 0.22903743 -0.12543496 -0.030240543 -0.14725871 0.37279695 -0.27371293 0.13852414
0.22674935 -0.048171535 -0.29619527 0.111719236 0.038358804 -0.028182179 -0.20978029 0.14816211
0.020903854 0.14830202 0.0016192659 -0.115683965 -0.024917053 -0.09556242 -0.13152164 0.27735394
-0.049084138 -0.08012454 -0.0044306894 -0.060194723 0.18649451 0.19634 0.07878809 -0.24425635
0.29961386 0.024929877 -0.0018172777 0.06574257 0.11703061 0.17369185 0.080466285 -0.046754714
0.056431092 0.0733842 0.057738636 -0.04106156 -0.106681906 0.0463417 0.21805981 -0.11226316
-0.058544826 -0.0690398 -0.20252301 -0.09161684 0.067570135 -0.002464095 -0.24701662 -0.27576587
-0.23556218 0.03612124 0.10061303 0.057140894 0.015879435 0.014595075 -0.04873334 -0.10144582
0.10543407 0.13087842 0.33416775 -0.07292285 0.051527515 -0.077507 0.19455473 0.13777421
-0.061597064 -0.17039569 0.36782387 -0.10873575 -0.20335034 -0.15597634 -0.23766568 0.0893661
-0.008301305 -0.089312546 0.1336241 -0.39861274 0.17424317 -0.17280689 0.103295505 -0.07524178
0.013392706 0.016350755 -0.03364211 0.17250285 0.09617612 -0.052700486 0.111236125 0.017443
0.19067861 -0.078681454 -0.06705329 0.049795736 -0.13392074 0.06997312 0.06282171 -0.09231712
0.12570125 -0.010267105 -0.20000052 -0.1205604 0.18570839 0.010686156 -0.023427285 0.14847453
0.082951576 -0.037433974 -0.29809067 -0.044606518 0.1452853 0.22933967 0.10272094 -0.079378754
0.0065639685 0.025928348 -0.07809778 0.08161091 0.11188702 -0.16059183 -0.05984814 -0.009038448
-0.0592177 -0.031003421 -0.0262463 -0.058754735 -0.32717767 -0.07636501 0.24943338 -0.11241819
0.014479082 0.124274805 0.012866248 0.10223325 -0.09191723 -0.03733631 0.28429708 -0.25807726
0.27133548 -0.020186726 0.026991233 0.036799446 0.08165547 0.084988885 -0.061481263 0.08501977
0.15321408 0.16254087 -0.2882809 -0.13467225 0.263499 -0.17518862 -0.029820956 0.26270607
-0.1724358 0.055794735 -0.011550712 0.08305561 -0.10539945 0.32663625 -0.09110742 0.015836531
0.09733808 0.18469666 -0.19563296 0.13322361 0.03077588 -0.287638 0.015145414 0.022850659
0.15658157 -0.2216619 0.095996074 0.17168216 0.24149497 0.08130056 0.19846305 -0.21843298
0.3439109 -0.17168415 0.14031258 0.15321966 0.06333634 0.20160241 -0.0673639 0.0112447925
00000000: fa23 5ebd 826d 193e 2521 ba3d c017 f23d
00000010: caa0 a23d 2610 1abe e3fa ecbc 00ce ec3d
00000020: 58f8 7cbd cbe7 8e3e 8e16 85be 0c5d ac3c
00000030: b36a 14bd fb94 793c 2a13 f43d 4659 153e
00000040: f576 2abd 46f9 553c 3b04 843d b70b 42bc
00000050: 1342 efbc 3650 c9bc 8b51 99bd 18fe 253c
00000060: 3d23 03bd ea4d aa3c 9bdd dbbd 551a 483e
00000070: 2ef2 99bc eac4 bf3c 6399 993d 5d66 703d
00000080: 6e7c 07be 629b 6a3e 938d 1c3e 58b0 8f3b
00000090: fc49 34be aeb1 4abe e88d 14be 032d f73b
000000a0: f5af 98be aca9 bebd 0534 fe3d 42bb 983e
000000b0: a486 603d be05 013c 3644 59bd f990 053b
000000c0: 33f3 27bd f754 e2bd fbc2 b43d 4969 1bbe
000000d0: 799d 153d a2f7 a33d f289 2dbd 7f2e 0e3e
000000e0: 1037 ea3d daa5 aebe 9149 cbbd d087 82be
000000f0: 4609 2f3e bc80 83ba 72cf 7dbe 9eec 45be
00000100: f4d6 803e ca88 6a3e 0672 00be 04bb f7bc
00000110: fdca 16be 3edf be3e 1a24 8cbe 46d9 0d3e
00000120: fb30 683e 844f 45bd e8a6 97be 0ecd e43d
00000130: 1f1e 1d3d 50de e6bc a5d0 56be cfb7 173e
00000140: 8f3e ab3c 7cdc 173e 8c3d d43a b7eb ecbd
00000150: d91e ccbc 3bb6 c3bd 9cad 06be 5601 8e3e
00000160: 730c 49bd 5618 a4bd 512f 91bb be8e 76bd
00000170: 6bf8 3e3e 5a0d 493e a65b a13d 561e 7abe
00000180: fd66 993e be39 cc3c b931 eeba 0aa4 863d
00000190: bfad ef3d 47dc 313e 82cb a43d df81 3fbd
000001a0: 4a24 673d 754a 963d 597f 6c3d 2b30 28bd
000001b0: 0b7c dabd cbd0 3d3d 124b 5f3e 3aea e5bd
000001c0: b3cc 6fbd bd64 8dbd 3162 4fbe 9ca1 bbbd
000001d0: 3662 8a3d a77c 21bb edf1 7cbe 2f31 8dbe
000001e0: 3637 71be def3 133d 340e ce3d 920c 6a3d
000001f0: 9715 823c 2e20 6f3c 9c9c 47bd d3c2 cfbd
00000200: d1ed d73d fe04 063e 0918 ab3e 9358 95bd
00000210: 840e 533d fdbb 9ebd 5b39 473e af14 0d3e
00000220: 344d 7cbd 357c 2ebe 6953 bc3e d9b0 debd
00000230: 123b 50be 43b8 1fbe a25e 73be 9305 b73d
00000240: 3202 08bc 7fe9 b6bd c2d4 083e f816 ccbe
00000250: cd6c 323e 4af4 30be 988c d33d 5d18 9abd
00000260: 156d 5b3c 05f2 853c 4fcc 09bd 96a4 303e
00000270: fcf7 c43d 77dc 57bd c4cf e33d 9fe4 8e3c
00000280: 4141 433e be23 a1bd 3c53 89bd 9df6 4b3d
00000290: 8522 09be 114e 8f3d aba8 803d c210 bdbd
000002a0: d4b7 003e 5c37 28bc f0cc 4cbe 5fe8 f6bd
000002b0: 572a 3e3e fd14 2f3c 94ea bfbc b509 183e
000002c0: 84e2 a93d 5e54 19bd 579f 98be 53b5 36bd
000002d0: abc5 143e 05d8 6a3e 5b5f d23d 5491 a2bd
000002e0: 8f16 d73b b067 d43c bbf1 9fbd 9f23 a73d
000002f0: 0625 e53d 2f72 24be 5323 75bd 0016 14bc
00000300: 428e 72bd e3fa fdbc 7b02 d7bc cea8 70bd
00000310: d583 a7be 4265 9cbd 776b 7f3e 823b e6bd
00000320: ac39 6d3c ca83 fe3d f5cc 523c ab5f d13d
00000330: 1a3f bcbd f5ed 18bd 638f 913e b422 84be
00000340: 7cec 8a3e a25e a5bc b81c dd3c 04bb 163d
00000350: fc3a a73d a70e ae3d c7d3 7bbd d81e ae3d
00000360: 27e4 1c3e 1d71 263e 8e99 93be 86e7 09be
00000370: 57e9 863e a564 33be 144b f4bc 6981 863e
00000380: 0393 30be 0589 643d 333f 3dbc 0f19 aa3d
00000390: abdb d7bd de3c a73e 8796 babd 9dbb 813c
000003a0: 3059 c73d 1f21 3d3e 0254 48be c56b 083e
000003b0: b31d fc3c 4a45 93be 7824 783c 4e31 bb3c
000003c0: eb56 203e 56fb 62be 9799 c43d 73cd 2f3e
000003d0: 754a 773e e880 a63d e639 4b3e e5ac 5fbe
000003e0: 1715 b03e f8cd 2fbe 1aae 0f3e 9de5 1c3e
000003f0: 7cb6 813d dd70 4e3e 16f6 89bd 143c 383c
