Assets/Trained Models/Worker.onnx (onnx, 461890 bytes, 11 tensors)

action_model._continuous_distribution.log_sigma f4 [1, 3]
00000000: ac1a 96bd b744 0dbe 9cd2 2cbe
-0.07329306 -0.13795744 -0.16877216

action_model._continuous_distribution.mu.bias f4 [3]
00000000: 5b5b 0dbb f954 eabb 80d7 9fba
-0.0021569345 -0.007151243 -0.0012194961

action_model._continuous_distribution.mu.weight f4 [3, 256]
00000000: e7bd 8abc 60dc 9ebc fb86 fb3b 4060 32ba
00000010: 9868 653c 5f70 ec3c 9d1b 00bc efda f2bc
00000020: c646 a3bc 1255 babc 0983 883c 5988 64bc
00000030: a07e 8bbc 45df a4bc 2cf1 2a3b 4e8b d5bb
00000040: 3618 033d e4e7 74bc 449b 9b3c f34c 94bd
00000050: d93b 263a a5f8 d6bc ec3c 43bc 1791 20bd
00000060: fc03 ec3b 60a6 a3bc b383 cd3c 364f 103c
00000070: 0b4c 13ba ded1 b13b 721f c8bb 38dc 863b
00000080: 532b 9f3c fe5c 98bc 8354 9337 8390 b5bc
00000090: 49a4 40bc cae3 a7bc d198 b03b 8e62 0e3b
000000a0: c975 09bc 8c9f 66bc 260f 683c 9b29 8abc
000000b0: b344 8fbc 1f49 09bc 8453 b83c 9654 b8bc
000000c0: b503 be3c e034 11bc b1e1 28bc 1628 c43b
000000d0: a5dc d5b6 5184 fabb 1616 253d b29c c4bc
000000e0: dfe8 ad3c faad 90bc 76e4 51bc a2c8 95bc
000000f0: cbe4 0cbc d2ae 313c aad9 aa3b 5bbe d93b
00000100: 2e0d 72bb d758 823a 0e7b 383a 8d04 a53c
00000110: 60af 7abc 1211 8b3c de4c 17bd 603c 75bc
00000120: 3aa7 b7bc 7959 25bc 8dfb afbb 5cc2 473c
00000130: 2af9 813c 0296 203b a30e 51b9 aeef b13c
00000140: c816 3bbc 6b79 01bc d4a6 9ebc 9a0a bb3c
00000150: a1ed a6bc 15b0 303c f8c0 e93c 5b90 a83b
00000160: d2d4 dd3c 3ebe dfbb f126 60bc 8d68 fa3b
00000170: 7926 c7bc 4b3c 903c ee8e 293b 3603 d03b
00000180: 345f 2bbb 1cea 3c3c 9eba 65bc 3995 a0bc
00000190: 8a81 8b3c 614a afba d3b8 ff3a d509 cd3c
000001a0: 4d38 b33b 89d0 d6ba 3ebc ecbc 8210 b13c
000001b0: d285 c1bc 4f4f 003d 25a7 18bc dda4 18bb
000001c0: f623 56bc ec9e ff3c e0d4 5d3c 4050 9dba
000001d0: ada1 ecbc 6ca6 b5bb 1a14 4ebc 0a5b 2a3c
000001e0: 7ea3 ee3a 36a0 093d c20f 09bc bae1 293a
000001f0: 8b6d 3fbc b1be b6bb 22bd 17bd eaf2 7f3b
00000200: 9bf5 a3bc ed6f 3f3b 4672 77bc f919 97bb
00000210: 210a 483b b9c1 483c 737c c23b 0c40 93bc
00000220: babd a5bc 7cf6 003b 9088 1fbb 3c78 c4bb
00000230: e698 57bc 867d 9dbc 900b dbbc a1c6 5ebc
00000240: 44c5 3d3d 2fda cfbb a719 e8ba 889c fabc
00000250: 7256 873a 96e5 663c 8736 ef3b 5da1 c7bc
00000260: 48b9 0a3c 157e 2f3c faa9 3d3d c321 5d3c
00000270: afc6 633c 0573 7d3c 46c5 a13b 360d 083d
00000280: 126a 2bbc b814 403d bb00 8e3c 9b8e 963c
00000290: 37d9 8b3c 338d 0dbb f41a 21bd ec04 c93c
000002a0: 5fa0 a8bb 5279 2abc f2bc 683c 1194 15bd
000002b0: 26ec 54bc 1248 5d3d 923f a6bb 3c89 7abc
000002c0: 00a9 803c 95d2 3cbd 7d28 6e3c 107f 15bb
000002d0: bcb8 b13c 2699 113d 0c3a 443c 886b 37bc
000002e0: 4695 fdbb 992f 4dbc 886e 01bd 281b c63c
000002f0: 4d45 f03c 7f2d bfbb 51a2 e5bb f8fe a63c
00000300: 3ca4 0d3d 16c3 843c 4fc6 06bc e46c c7ba
00000310: 8f50 febb 9b9f a4bb 6cec 21ba 60f9 48bc
00000320: 1ac4 9b3c a73c 5c3c 3b17 b83c 30ab 313c
00000330: d142 33bd cbc8 8abc bd6c c0bc 6108 41bc
00000340: 780b 29bc 21d7 293c 41d6 cebc a8e9 ab3c
00000350: 0464 a5bc a908 6b3c 3dd1 a33c 8f26 943c
00000360: 58a9 06bd a672 4f3b 7017 19bc 5d39 943b
00000370: 4c2c 503c 6667 4fbc e580 04bc 734c 5abc
00000380: 90f8 aa3b 886f a1bb f3b0 0f3c de5d 083d
00000390: c582 cfba f9b0 09bd cc57 cf3c 4861 963b
000003a0: fd36 74bc ba2c 80bc 5cc3 0fbd d8db 91bc
000003b0: 606f 5f3c 29ed 32bd e3b5 353c 8828 f2bc
000003c0: ac8a dd3c 712e 3c3b 2562 803c 1f4a 88bc
000003d0: cffb b23c 3df2 84bb 82c9 d73b b913 0a3b
000003e0: a7cc cfba 1ada 063d f339 83bc 5819 93bc
000003f0: 7ead 1abc 4fad ca3c a9ea f73c 0602 e03c
-0.016936256 -0.019392192 0.007676003 -0.00068045035 0.014001988 0.028862176 -0.0078190835 -0.029645411
-0.019931208 -0.022745643 0.016664045 -0.013948523 -0.017028153 -0.020125994 0.002608369 -0.0065168506
0.03200551 -0.014947865 0.018994935 -0.072412394 0.00063413155 -0.02624161 -0.01191638 -0.03920087
0.0072026234 -0.019976795 0.025087213 0.008807948 -0.0005618936 0.0054266294 -0.006107264 0.0041156076
0.019429838 -0.01859903 1.756312e-05 -0.022163635 -0.011757919 -0.02049436 0.005389311 0.0021726224
-0.008389899 -0.014076125 0.014163768 -0.016865542 -0.017488813 -0.00837925 0.02250076 -0.022501271
0.023195127 -0.008862704 -0.010307715 0.005986224 -6.373581e-06 -0.007645168 0.040304266 -0.0240005
0.021229206 -0.017661083 -0.012810817 -0.018284146 -0.00859947 0.010844903 0.005213936 0.0066450066
-0.0036934125 0.0009944689 0.00070373795 0.020143772 -0.015300602 0.016975913 -0.03693854 -0.014968008
-0.022418607 -0.010092133 -0.0053705634 0.012192335 0.015865881 0.0024503474 -0.00019937246 0.021720733
-0.011419006 -0.007902483 -0.01936666 0.022832204 -0.020376982 0.010784169 0.028534397 0.0051441616
0.02707902 -0.0068280986 -0.013681159 0.007641858 -0.024310337 0.017606875 0.0025872546 0.006348039
-0.0026149275 0.011530425 -0.014021544 -0.019602405 0.017029542 -0.0013373607 0.0019510038 0.025029102
0.005469358 -0.0016389053 -0.028898355 0.021614317 -0.02362338 0.031325635 -0.009317194 -0.0023291626
-0.013070097 0.03120371 0.013539523 -0.0012002066 -0.028885687 -0.0055435207 -0.012578035 0.010397682
0.0018206683 0.033600055 -0.008365573 0.0006480474 -0.011683832 -0.0055769314 -0.037045605 0.00390547
-0.020014575 0.0029211 -0.0151029285 -0.0046112505 0.0030523615 0.012253218 0.0059352457 -0.017974876
-0.02023207 0.0019678166 -0.0024342872 -0.0059957784 -0.013159012 -0.019224893 -0.026738912 -0.0135971615
0.046330705 -0.006343148 -0.001770784 -0.030592218 0.0010325445 0.0140928235 0.0073002013 -0.024368936
0.008467026 0.010711213 0.04630468 0.013496819 0.01390235 0.015469317 0.004936847 0.033215724
-0.010462301 0.04689476 0.017334333 0.018378546 0.01707135 -0.0021599054 -0.039332345 0.02453848
-0.005146071 -0.010404902 0.014205204 -0.03651816 -0.012995755 0.05402381 -0.005073496 -0.015291508
0.015705585 -0.046099264 0.01453602 -0.002281133 0.021694534 0.035546444 0.01197673 -0.011195071
-0.007738742 -0.012523555 -0.03159955 0.024182871 0.02932992 -0.005834281 -0.007007875 0.02038525
0.034580454 0.016206305 -0.008225991 -0.0015214947 -0.007761068 -0.0050239093 -0.0006176892 -0.012266487
0.019014407 0.013442195 0.022472015 0.010844037 -0.043764893 -0.016941449 -0.02348935 -0.011781783
-0.010317676 0.010366232 -0.025248649 0.02098544 -0.020189293 0.014345326 0.019997234 0.018084792
-0.032876343 0.003165403 -0.009343967 0.00452344 0.012705874 -0.012658929 -0.0080873715 -0.013323891
0.0052176192 -0.0049266256 0.008770215 0.033292644 -0.0015831819 -0.03361604 0.02531042 0.0045892335
-0.014905688 -0.015646327 -0.03509842 -0.017805025 0.013637394 -0.043683205 0.011090728 -0.029560342
0.027043663 0.0028714205 0.015671799 -0.016636906 0.021848587 -0.0040571974 0.006585301 0.0021068885
-0.0015853838 0.03292284 -0.016018843 -0.01795642 -0.009440778 0.024740843 0.030263262 0.027344715

network_body._body_endoder.seq_layers.0.bias f4 [256]
00000000: 9de4 4e3b b6be 36bb 67ca e9ba 94e9 b0bb
00000010: a9da 93bc baf5 70bc 2a66 54bb 894e 733c
00000020: 1b55 ce3c c2d9 073c 219b 3a3b 511c 543b
00000030: c6d0 fc3b 9065 0e3c f0a5 dd3a b338 43bc
00000040: 69a0 b43b d1c0 8a3b e3ec 74bb 0f83 d33c
00000050: c153 8d3a 2b3d 5d3b e188 cb3b 23fb 6f3c
00000060: e227 853a 1438 10bc 7162 703b d1e6 ae3b
00000070: 769b 55bc a0ff 2cbc d872 cebb 6c72 a9bb
00000080: 21ff b93b 66fa d73b fac8 27bc a1cf 8fbb
00000090: ce84 433a c35a 8b39 ba22 3f3c 061c 5dbc
000000a0: 28fe 863b d778 143b ddfe ecbb d2a9 c93a
000000b0: fad4 333b a5cb 87bc 10cd 23bc 6607 2a3b
000000c0: 1887 863c fe24 f9bb be4d 1fbc bbcb 573a
000000d0: aa92 42bb c4aa b03b 75cf 823b d789 2abb
000000e0: 1a24 9f3c d30d ba3b fdc9 cbbb c8a8 353b
000000f0: 1447 10bc 5b8b 2bbb ca76 69bb 2a26 9a3b
00000100: 1c95 0a3b 06ab 20ba eb96 9aba e071 9b3b
00000110: a07e 73ba b762 5a3c 4ef5 833c ae95 74bc
00000120: 2b50 2a3c 9bfb 88bc 8d4a e5bb ab9e ffbb
00000130: df6d 9d3b d260 47bc abeb 3c3a e259 20b6
00000140: 1992 cabb 9af2 c6bc fcb9 cabb 7b80 28bb
00000150: 1f10 423c f697 21bb 8d48 823a 7f2c 1ebb
00000160: 866a 313b bfe2 2bbc 2391 a238 87a2 94bc
00000170: 582c caba 3ca7 1fbb 8c88 e2bb 1535 a5bc
00000180: f47b 0bbc 9aeb 0ebc 2650 9c3b f9ff 633c
00000190: 1eff e435 ab89 1d3c 16f7 003c 870b 30bb
000001a0: 0559 863b e5d0 98ba fd54 603c cba9 16bc
000001b0: de49 2a3b cfba 203c 59da a8bb 91ff d8bc
000001c0: 7706 5bbc 3cbc 493b 545f c5bb 74ba 93bb
000001d0: 0deb d23b 5f12 593b b217 96ba 1b01 a2bb
000001e0: 93e0 12bc 00c4 adbb af41 0abb 892a 85bb
000001f0: 4910 4abc fbe0 16bc 7e95 233c fcbc 6aba
00000200: 05da 74bc 0f15 59bc 8283 b83c 1e35 8fbb
00000210: dd2f b1bb 81be 47bb de7a 4d3c 18b6 a43a
00000220: d2ac 23bb 5b38 8fbc b567 13bc f1de 293c
00000230: f630 13bc 0a19 d73c 4545 823b cf33 f9bb
00000240: 8766 b23b 1dc5 753a 3675 88bc 8a14 8a3b
00000250: d874 04bc 8143 0cbb 6f0a 1fbc 19ce 083c
00000260: 2ef4 003c 58a0 843b d348 a33a 1a06 503a
00000270: c6fb c33a faf1 5ebb 2d28 5cbc 8f19 3e3c
00000280: c669 16bb 34d1 0b3c ee8f 0ebb f7fd 12bc
00000290: 131e a33c 77ef 8abb ba4c 5f3c efe4 80bb
000002a0: 8144 a23b 7cb6 903b 6394 21bc 9bdc 833c
000002b0: 3b53 313a a343 453b c09a 11bc 3462 31bb
000002c0: 54fa 3e3b 6c40 533c fc46 33bc 3095 abbc
000002d0: 5e2d cfbb 77b6 a5ba e2c4 33bc 0348 16bc
000002e0: dd96 f5ba a488 05ba 1ef3 223a 977c 433b
000002f0: 1f84 09ba 560e f13b d0a6 123a d968 c0ba
00000300: 1db2 e539 c4cf 82bb c414 67bc f53e 06bc
00000310: 61e5 3fbc 800c 8e3c fcca 893c 18fc ca3b
00000320: 354f 9ebb ca45 16bc 5d74 e43a 4d58 9c3c
00000330: d72e f73b 68a9 9e3b 331b 2cb9 5a61 0a3c
00000340: 3f74 b8bb 24a1 48bc d527 2e3c 0b5e 2d3c
00000350: 9d0f 803b 3ded 1cbc 9f71 4a3b dcc2 423a
00000360: 82dd ad39 e8dd c13b 73f2 413b 36e1 d0bb
00000370: 673d 563c 6599 50bc 31a7 72bc 9a88 8fbb
00000380: 2a4b 15bc d7c2 3bbb 30d8 19bb 23df 8b3b
00000390: 30ee 15bb 51e8 9739 eaab 8ebb 2115 f63b
000003a0: 24b8 483a f0bd c5bb 5f28 0a3c 4866 36bb
000003b0: 359e 9c3c 1302 9cbb 13db 6a3a d42d 953c
000003c0: 61b8 933a 082f 40bc 3e08 38ba f049 5abc
000003d0: e944 0c3c a4b0 5abc aef9 09bc 494d 5dbb
000003e0: 378f 2cbc 5fc2 1b39 ba57 c8ba 70a7 92bc
000003f0: 61a7 c33b 9ab9 373c 20dc 81ba 6038 733c
0.003156937 -0.0027884669 -0.001783681 -0.0053989384 -0.018048601 -0.014707023 -0.0032409527 0.014850267
0.025187066 0.008291664 0.0028473812 0.003236551 0.0077153174 0.008691207 0.0016910415 -0.011915374
0.0055122864 0.0042344113 -0.003737264 0.02581933 0.0010782407 0.0033758383 0.0062113856 0.014647278
0.0010158981 -0.008802433 0.003667977 0.005337574 -0.013037553 -0.010558993 -0.0063003115 -0.005171111
0.0056761657 0.006591129 -0.010240788 -0.004388765 0.0007458449 0.0002657977 0.011665994 -0.013495451
0.0041196533 0.0022655034 -0.0072325305 0.0015385693 0.0027440176 -0.016576597 -0.009997621 0.0025944351
0.01642184 -0.0076032868 -0.009723125 0.00082319573 -0.002968947 0.0053914506 0.003992016 -0.00260221
0.019426394 0.0056779175 -0.0062191472 0.002771901 -0.008806009 -0.0026175592 -0.0035623782 0.0047042565
0.0021146005 -0.0006129 -0.0011794245 0.0047437996 -0.0009288583 0.0133291995 0.016108181 -0.014928265
0.01039509 -0.016721537 -0.0069974125 -0.007800897 0.0048043574 -0.01216908 0.0007206748 -2.3894177e-06
-0.006181967 -0.024285603 -0.006186722 -0.0025711346 0.011844664 -0.0024657226 0.0009939835 -0.0024135408
0.002707155 -0.010491072 7.751796e-05 -0.018143905 -0.0015424592 -0.0024361154 -0.0069132503 -0.020166913
-0.008513439 -0.008723164 0.0047702966 0.013916009 1.7061573e-06 0.009615342 0.00787141 -0.002686234
0.0040999674 -0.0011658935 0.013692138 -0.009195755 0.002598397 0.009810164 -0.005152982 -0.026489051
-0.013368241 0.0030782362 -0.006023327 -0.004508311 0.0064367116 0.0033122522 -0.0011451154 -0.0049439794
-0.0089646755 -0.005302906 -0.002109628 -0.0040639085 -0.012332984 -0.009208913 0.009984372 -0.00089545525
-0.014944558 -0.01324965 0.022523645 -0.0043703457 -0.005407317 -0.003047854 0.012541501 0.0012566475
-0.0024974835 -0.017482927 -0.008996894 0.010368095 -0.008983841 0.026257057 0.0039755427 -0.007605053
0.005444351 0.00093753805 -0.016657453 0.004213874 -0.008084498 -0.002140254 -0.009707077 0.008349919
0.007870717 0.004047435 0.0012457616 0.00079354795 0.0014952354 -0.003401874 -0.013437313 0.011602773
-0.002295123 0.008533765 -0.002175327 -0.008971683 0.019911801 -0.004239972 0.013629133 -0.003933541
0.004952014 0.004416285 -0.009862038 0.016096404 0.00067644165 0.003010013 -0.008886993 -0.002706659
0.0029140906 0.012893777 -0.010942217 -0.020945162 -0.006322547 -0.001264288 -0.0109722335 -0.009172442
-0.0018736977 -0.00050939084 0.0006216037 0.00298289 -0.0005245823 0.0073564453 0.0005594315 -0.0014679685
0.00043810988 -0.0039920527 -0.014104072 -0.008193721 -0.011712403 0.017339945 0.016820423 0.0061946027
-0.0048312196 -0.009171912 0.0017429698 0.019085074 0.0075434255 0.004841972 -0.00016413331 0.008446062
-0.005629092 -0.01224545 0.010629614 0.010581504 0.0039081112 -0.009578046 0.0030890477 0.0007429549
0.00033162168 0.005916346 0.0029593974 -0.0063745035 0.013076163 -0.012731885 -0.014810369 -0.004380298
-0.009112159 -0.002865007 -0.0023474805 0.0042685433 -0.0022877567 0.00028974054 -0.00435399 0.007509843
0.00076568336 -0.006034605 0.008432477 -0.002783196 0.019118408 -0.0047609895 0.0008959036 0.01821033
0.0011270159 -0.011729963 -0.0007020271 -0.013323292 0.008561351 -0.0133477785 -0.008421345 -0.003376799
-0.010532192 0.00014854361 -0.0015284934 -0.017902106 0.005970881 0.011213684 -0.0009907521 0.014844984

network_body._body_endoder.seq_layers.0.weight f4 [256, 267]
00000000: 6a00 8d3d 9e97 e83d 38d5 ac3d e2b3 e0bd
00000010: 12ec a73d 8cda 3939 16af 7fbc d449 cbbc
00000020: 9b4f 73bd df6a 273e aead 3eba 708f 063e
00000030: 5149 22bd 827a 473d 697d e4bc 1e5d c73b
00000040: d186 17bd 97ab e73d b4e3 3f3d be5b 423d
00000050: 0488 2cbc a9ac aebc 8990 a23c 6473 833d
00000060: 95d9 9f3b d84d 2bbd 27df 8d3d d886 8e3d
00000070: 6378 973d 4e19 823d f6ee 063d 6d83 30bc
00000080: 9d22 153d dd47 d93c 8d19 2439 17e2 e5bc
00000090: b22c 193d de6c 0bbd 3711 6fbd d731 c5bd
000000a0: 6aa2 283d ee97 873c d6da 08be c927 ffbd
000000b0: 798d d23d 4dbc e33d 8a75 873a 21cc dabc
000000c0: 9dc9 03bd 17b5 c4bc d86c 763b 4920 ee3c
000000d0: b80c 18bc 248a c03c cf0c 81bd 4803 803d
000000e0: 0ca9 c8bb 327a 863d 2922 ebbb 9563 9e3d
000000f0: 5b43 543d 9f24 0dbe 97eb 553d 2355 603b
00000100: 4b71 b5bb 9259 353d 79e2 8c3d a8db c13b
00000110: 780f b0bc a2f3 8dbd cca4 49bd 2c92 a1bd
00000120: 18a3 843a cb41 4cbc 371b 453d a5d3 c8bc
00000130: 039d 6bbb 4a6f 18be b61c 81bc 9a8e 793d
00000140: 096e 063e 69d4 dabd f38b 7a3d 8585 2b3c
00000150: f4b0 c6bc 6e21 e2bd f465 95bd 3143 f7bd
00000160: 8496 15bd ec3a 713d 25c0 da3c b2f0 983d
00000170: 43c9 e03c 9d87 973d 7707 e93c d12d 4a3d
00000180: 7fdd e43c fc32 503d b08e c8bc f975 f23d
00000190: 975e 09bd 3f53 3c3d 91b8 07bc 0db8 af3d
000001a0: 7612 9c3d 1557 f43c 02d2 05be c20b 3bbe
000001b0: 4daf e93b 0c64 a53d 8c5e 93bd 5d78 383c
000001c0: 2543 33bd ad96 92bc 782d 4b3d 3118 273d
000001d0: f431 103d bb23 5fbd 421d d6bd 88a6 cf3c
000001e0: ac86 debd 9faf 56bd f04e 593d 3cf5 6abd
000001f0: 18b9 b63c e95b 3cbd abb5 393d cce0 cbbc
00000200: 97d1 1f3c e4d4 b6bd 5e59 74bd 9a63 04be
00000210: d38a 6a3d 1ada 31bd 6c15 87bd 6a26 f03c
00000220: 988d 97bd 169b 243d 6066 6cba d0c1 b2ba
00000230: a7a8 2b3d c00e 363c 58b4 b4bd 430f a03d
00000240: 1e95 193c 91b0 193c aa60 cf3d 77a2 6ebc
00000250: 44d9 d33c 9968 d53c ecb1 21bd 012a 9bbc
00000260: 28ff 783a 5420 3ebd c056 a3bc e718 44bc
00000270: 2a8f 873c b7b4 ad3d 96af 033e 7319 83bc
00000280: 5b54 0b3e 75e8 1a3d 0821 813c 8d82 86bd
00000290: 40d7 0a3d 7b1e 19be f7a2 723d 236d 09be
000002a0: dc03 19bd 79a2 57bd a4a7 8e3d 5aad 7cbd
000002b0: a186 023e 2678 9bbd c025 4ebd eaa4 303c
000002c0: cc82 3cbd be0b 93bc 2fe1 8fbd b855 d0bc
000002d0: 84ec 543d 9144 43bd 289e 4fbb aa5a e1bd
000002e0: 7c96 69bd 0584 683d 875a 013d 53ab 57bd
000002f0: 5b9d d63d ba21 f5bc 7c57 1a3d 680b f1bd
00000300: b17d c03d ca3a 0e3d b556 0fbd 6c4a 33bd
00000310: a40f b43b ecee 763d 9e7a 253d 1678 69bd
00000320: 6872 85bc 7775 4a3c 5eaa ffbb d2a0 fa3d
00000330: 266c ad3d 0aa7 b83c 1a70 20bd 0871 013e
00000340: 6bb6 c8bd 3b54 c4bc d8ab 0bbd e144 0cbe
00000350: c358 49bd 5b0a 6b3c dbb2 293c 6b8e c83d
00000360: 7d03 823d d69d 013d 967f 1c3c 5d9f 2fbd
00000370: 2e41 e8bd 1141 8dba 2551 34bd 998f a33b
00000380: 8642 a43d 334a 803d 4343 f53a 5bb9 433d
00000390: df26 9a3d 3d93 87bc 6d6b 4dbd 875a bc3d
000003a0: 29bc d2bc 83e9 ffbc 9001 04be 4087 a3bd
000003b0: 41ba 8f3d 314d 3e3d 5d8e 61bb 3896 adbc
000003c0: 1513 b53d 70dc 0c3d afa0 683c b49e 4abd
000003d0: 959a 243e 84d2 d23d 4c90 e23c cd28 983d
000003e0: 84ef a7bd c056 d53b 23e5 3dbd 80fb 173d
000003f0: bc97 83bc dbdc 79bd e0e1 4ebd 0384 38bb
0.068848446 0.11357044 0.08439106 -0.1097181 0.08199324 0.0001772439 -0.015605709 -0.024815477
-0.05940209 0.16349362 -0.0007273805 0.13140655 -0.0396207 0.048700817 -0.027891831 0.0060840985
-0.036993805 0.11312025 0.046848014 0.047450773 -0.0105304755 -0.021322565 0.01984431 0.064184934
0.0048782327 -0.041822284 0.069273286 0.06959313 0.07396009 0.06352483 0.032942735 -0.010773522
0.036409963 0.026523525 0.00015649777 -0.02806191 0.03739614 -0.03403937 -0.058366027 -0.09628647
0.041170515 0.016551938 -0.1336473 -0.1245876 0.1028089 0.111199 0.0010334712 -0.026708664
-0.032174695 -0.024012132 0.0037601497 0.02906813 -0.009280376 0.02350337 -0.06301271 0.06250626
-0.0061236676 0.06566276 -0.007175703 0.077338375 0.051822048 -0.13783501 0.05222663 0.0034230433
-0.005537187 0.044274874 0.06879134 0.0059160776 -0.021491751 -0.06931235 -0.04922943 -0.07889208
0.0010119407 -0.012466858 0.048121657 -0.024514982 -0.003595174 -0.14886203 -0.01576076 0.06092701
0.13127913 -0.10685045 0.061168622 0.010468845 -0.0242543 -0.110415325 -0.07294837 -0.120733626
-0.036520496 0.058894083 0.02670295 0.07467784 0.027439719 0.07398913 0.028445942 0.0493601
0.027937649 0.050829872 -0.024482101 0.11838908 -0.033537474 0.045977827 -0.00828375 0.08580027
0.07620709 0.02982668 -0.13068393 -0.18266204 0.007131493 0.08075723 -0.07195768 0.011259166
-0.043765206 -0.017894113 0.04960391 0.040794555 0.03520389 -0.054477435 -0.10454799 0.025347963
-0.1086553 -0.05241358 0.053053796 -0.05736278 0.022305056 -0.04598609 0.045339268 -0.024887465
0.00975456 -0.089273244 -0.05965554 -0.1292862 0.0572613 -0.04342089 -0.06595883 0.029315192
-0.07400054 0.040186964 -0.00090179406 -0.0013638083 0.041908886 0.011111915 -0.0882346 0.07815411
0.009373931 0.009380476 0.10125859 -0.014565102 0.025860436 0.026050853 -0.03947632 -0.018940927
0.00094984705 -0.04641755 -0.019938827 -0.011968828 0.016547758 0.08481734 0.1285995 -0.016003346
0.13606398 0.037819345 0.01576282 -0.06567869 0.033896685 -0.14953034 0.059237447 -0.13420539
-0.037357196 -0.05264518 0.06965569 -0.06168876 0.1274667 -0.07591276 -0.05032897 0.010781506
-0.046023175 -0.017949935 -0.07025372 -0.025431499 0.05198337 -0.047672812 -0.0031679962 -0.11003621
-0.05702828 0.05676653 0.031580474 -0.052653622 0.10479232 -0.029923309 0.037681088 -0.11769754
0.09398974 0.034724034 -0.0349948 -0.043772146 0.0054950286 0.060286447 0.04040014 -0.05699929
-0.016289905 0.012357107 -0.007802292 0.12237705 0.08467893 0.022540588 -0.03916941 0.12640774
-0.098004185 -0.023965945 -0.03409943 -0.1369815 -0.049156915 0.014345731 0.010357584 0.09792789
0.063483216 0.031644665 0.009551903 -0.04287659 -0.11340557 -0.0010776838 -0.044022698 0.0049914834
0.08020501 0.062641524 0.0018712062 0.04778419 0.07526945 -0.0165497 -0.050151277 0.09196954
-0.025724487 -0.031239277 -0.12891221 -0.07984781 0.07017947 0.046460334 -0.003441713 -0.021189794
0.0884153 0.034389913 0.014198466 -0.049467757 0.16074593 0.10294059 0.027656697 0.07429657
-0.08199981 0.0065105855 -0.0463611 0.037105083 -0.016063564 -0.06100164 -0.05050838 -0.0028154857

network_body.observation_encoder.processors.0.conv_layers.0.bias f4 [16]
00000000: 4583 953d f257 b73c 05e6 dd3b 198b 7c3c
00000010: 3140 c43d 26f0 ab39 af75 093d 35b4 bc3d
00000020: 67fb 6b3d 682c bebc 3205 70bc 3862 d73b
00000030: d0b1 113d 9081 803d 7698 213d defa 813d
0.07300428 0.022380803 0.006771805 0.015414023 0.09582556 0.00032794586 0.033559497 0.09214059
0.057612803 -0.023214534 -0.014649676 0.006572988 0.035569966 0.06274712 0.03945204 0.06346677

network_body.observation_encoder.processors.0.conv_layers.0.weight f4 [16, 4, 8, 8]
00000000: bb37 a4bb 0fef e33b ec51 6abc 4c5d c3bb
00000010: 8c30 503d 2c3b 413d 2c01 8dbd ec27 47bb
00000020: 2cd7 af3d cb23 37bc 78b5 583d a14a cbbc
00000030: b074 a43d 183a 533d 0c87 42bc f820 2dbc
00000040: 4193 963d da79 29bc 93eb 49bd daa3 2bbc
00000050: 1a11 c83b a543 b23c 3b43 5ebd 77ec 673d
00000060: 1996 603d 8803 353d 4c54 883d 5c7c 863c
00000070: 88af 56bd 14d7 853c 1955 14bc 8c88 9e3c
00000080: aa25 9f3d 3b14 203d ce40 903c cf6d 913d
00000090: 95a8 aa3d 8609 05bd ad65 0fbd 215f 893c
000000a0: 9cb3 43bd 150f b1bc 55f0 1fbd 4235 10bd
000000b0: a1e3 483d ad84 133d a12e c13d 8786 57bd
000000c0: 01bb 30bc 63ff d7bb 951a 8cbd 7084 76bd
000000d0: 25ff 8f3d e908 08bd d61c 2e3c 6609 c3bd
000000e0: 2d21 463d acd2 47bc 63ae ecbb a52f efbd
000000f0: dd27 b1bc fed3 80bd 8624 453d 6cb4 dd3c
00000100: 71e6 8c3d 831c 893d 65b9 bd3d 1369 80bc
00000110: 3196 ed3a 01aa 61bd 049f 13bd 9267 43bc
00000120: 401e 7b3d a5f1 0e3d 2218 aa3d 95e4 34bc
00000130: ac36 ea3b e720 bbbd 190c a0bc a581 0abd
00000140: 1bd5 5c3c df3b 8f3d 2374 abbd 018a f8bc
00000150: 65e4 e83c f071 3cbd 1ca8 53bd c7ed 0c3d
00000160: c7c6 223d 4520 983c d8ef 0fbd cac6 fbbc
00000170: b545 82bd f589 83bc 516b f83c 931c 523c
00000180: 175e 663d 479d 3ebd 4615 7e3d 326b 63bd
00000190: 66de c93b 48b3 6f3d 06a9 e93a a879 1e3d
000001a0: c0d1 693c 283c db3b 42bc 3abd 4a1a 563c
000001b0: 4706 8c3d ae16 123d 6cec edbc e3f8 323d
000001c0: cfce 243d cf3b 4abd 47bc 8ebd a6f8 debd
000001d0: 75b4 cd3b a604 923d 4aab a53c 5abe 343d
000001e0: 289a a9bd e113 a9bd f7d1 17bd c068 cbbc
000001f0: 7f0d 6b3c 7d77 3f3d 9b5c 733d d925 1e3d
00000200: 43cc fe3b 73de d2bc 3f8b 543b 7808 9f3b
00000210: dab0 f7bc 6823 7e3c e123 6bbd 3674 c5bc
00000220: 4e30 7d3d d095 62bd da86 83bc 7e19 933b
00000230: 656c cb3c 2c90 e23c 74a3 afbd a15e 033d
00000240: 69c4 9f3c 18e0 b1bc 624f 9a3c 4468 a5bd
00000250: 0fb3 4f3c 4efd 2f3d dc38 69bd 76af 25bd
00000260: 3da3 cbbc 1edf aabd aa24 8d3c 7efa b8bd
00000270: afc5 84bd a3c7 413d 52b4 5e3d 5903 65bd
00000280: c473 5dbd b436 02be 951f d4bd e8b8 94bd
00000290: 3265 033e 9265 e53c 0a1e 4ebc 0dd2 573c
000002a0: aa04 273d 69ae bebb 2c4d 26bd fc3f 693d
000002b0: 5a05 e33d d979 9e3d f26c 2c3d e37d 813d
000002c0: b76c 2a3c 0c68 ed3b f7fa 8b3d ebcc 183d
000002d0: 553a c63d 9059 033e 65f8 5d3d 67d3 6d3d
000002e0: 4b36 76bd 13b9 e6bc 25bf 883d b9ce 93bd
000002f0: bdcc e9bc ad4a b4ba ff97 07bb 4a5b 4cbc
00000300: ff0f 0a3d e6c4 3d3d e7ed 1bbd 7b73 c0bc
00000310: 3479 9ebb cb15 9d3d 1bd0 d43c 9386 1f3d
00000320: 1147 553d 8705 773d 9f2b e9bc d09c 5ebc
00000330: 4301 a43c 843b 8a3c cab1 d63b 67c3 04bd
00000340: d078 17bd 35de 673d 140c 6b3d 35f5 1e3d
00000350: 5843 353c e88e 1bbb 37e9 db3c 3847 77bc
00000360: 2f91 7e3d 0157 91bb 2012 913d 5300 fd3c
00000370: 9d70 0d3d e034 81bb ca8e 36bd 7ecc 3d3b
00000380: 9c7f e23c 442d a73d 93bb 83bc 88f6 cdbc
00000390: 9f8a b4bc 0fbf 8b3d fac3 863d f6d4 9b3b
000003a0: 748d ba3c 3610 843c 158a b03c 90e5 60bd
000003b0: 393f 96bc 7d56 913c 1f2c 823d 4d66 873b
000003c0: 40b9 9d3d a8db aebc a53e cabd 0f57 00bd
000003d0: 4ad4 00bd ae8e 21bd c358 b2bc 2695 9bbc
000003e0: 5391 e93c 3f50 323c 6051 f7bc b543 cfbc
000003f0: d33b 63bd d07b 3cbd 9959 d7bc 83d3 9d3c
-0.0050115264 0.0069559882 -0.014301758 -0.0059620496 0.050827548 0.04717557 -0.06884989 -0.0030388786
0.08585963 -0.011177967 0.052907437 -0.02481586 0.08030069 0.051569074 -0.011873018 -0.010566942
0.07352305 -0.010343993 -0.049296927 -0.010476077 0.0061055543 0.021760771 -0.054263335 0.056621995
0.054830644 0.04419282 0.06656703 0.016416721 -0.052413493 0.016337909 -0.009053492 0.01935222
0.07770856 0.039081793 0.017609026 0.071010225 0.08332936 -0.032479785 -0.035009075 0.016768994
-0.04777871 -0.021613637 -0.039047558 -0.03520704 0.04904521 0.0360152 0.09432722 -0.05261853
-0.010786773 -0.0065917238 -0.068410076 -0.060184896 0.07031087 -0.033211622 0.010626992 -0.09523277
0.048371483 -0.012196224 -0.007222937 -0.11679009 -0.021625454 -0.06290434 0.048130535 0.02706357
0.06879891 0.06694891 0.09263877 -0.015675103 0.0018126426 -0.05509377 -0.03604032 -0.011926549
0.061308146 0.03489842 0.08305384 -0.011040826 0.0071476307 -0.09137135 -0.019537019 -0.033815045
0.013478543 0.069938414 -0.08371761 -0.030339243 0.02842922 -0.046007097 -0.051673993 0.03440645
0.03974035 0.018570075 -0.035140842 -0.030734438 -0.06360952 -0.016056994 0.03032461 0.012824195
0.056242075 -0.04653671 0.062032007 -0.05552215 0.006160545 0.058520585 0.0017826862 0.03869024
0.0142712 0.006690521 -0.045589693 0.013067791 0.06837135 0.03566616 -0.029043399 0.043694388
0.04023629 -0.049373444 -0.06969505 -0.1088727 0.0062776157 0.07129793 0.020223279 0.044126846
-0.08281356 -0.08255745 -0.037065472 -0.024830222 0.014346479 0.046744812 0.059414487 0.038610313
0.0077758147 -0.025740838 0.003243163 0.0048533045 -0.030235697 0.015511371 -0.057407264 -0.024103265
0.061813645 -0.055318654 -0.016055513 0.004489123 0.02483196 0.027656637 -0.08576098 0.032072667
0.019502835 -0.021713302 0.01883668 -0.08076528 0.012676968 0.04296618 -0.05693899 -0.040450536
-0.024858112 -0.083433375 0.017229397 -0.090321526 -0.06483018 0.04730953 0.054371186 -0.055911396
-0.05406548 -0.1271618 -0.10357586 -0.072618306 0.12831572 0.028002534 -0.012580404 0.013172639
0.040775932 -0.005819131 -0.04060094 0.056945786 0.11085005 0.07738084 0.042096086 0.06322839
0.010401896 0.0072450694 0.06834977 0.0373048 0.09679095 0.12827134 0.054191966 0.058062937
-0.06011037 -0.028164422 0.06677083 -0.072171636 -0.02854001 -0.0013755165 -0.0020689962 -0.012472937
0.03370666 0.046330355 -0.03806868 -0.023492565 -0.004836226 0.07670172 0.025978139 0.0389467
0.052069727 0.060308006 -0.028463183 -0.013587192 0.020020133 0.016874082 0.006551956 -0.032412913
-0.03698045 0.056608398 0.057384565 0.038808066 0.011063419 -0.0023736302 0.026844604 -0.0150926635
0.062150177 -0.0044354205 0.07083535 0.030883944 0.034531225 -0.003943071 -0.044569768 0.0028960998
0.02764874 0.081629306 -0.016080653 -0.02514197 -0.022038756 0.06823551 0.06580348 0.0047556115
0.022772528 0.016121011 0.021550218 -0.054906428 -0.018340694 0.017741436 0.06356072 0.0041320683
0.07701349 -0.021344975 -0.0987523 -0.031333026 -0.031452455 -0.03944271 -0.02177084 -0.018992018
0.028511679 0.01088339 -0.03019017 -0.02530084 -0.055476975 -0.046016514 -0.02628784 0.019265896

network_body.observation_encoder.processors.0.conv_layers.2.bias f4 [32]
00000000: e417 223c cf1e 333d 1d54 d6bb 251e 153d
00000010: d2b3 3f3d cdb8 5f3d 5ee2 14bd dfef 3d3d
00000020: 57a5 703a c545 f53c e9e8 8fbc e752 a93b
00000030: aa8e d73a 253e 50bd 28dc 25bd 1d02 4a3d
00000040: bc59 41bc b99a f83c 79a5 c23b da75 f03c
00000050: 244c 97bc ebd8 a13b 0a1c 7ebc 732b 113d
00000060: 8292 b4bc da87 b7bc b314 e73c 06bb 7d3b
00000070: 5032 203d 93f6 e63c 07b2 3e3d 2226 dbbc
0.009893391 0.043730553 -0.006540789 0.0364057 0.04680235 0.0546196 -0.036348693 0.046371337
0.0009179911 0.029940495 -0.017567115 0.0051673534 0.0016445715 -0.050840516 -0.04049316 0.04931842
-0.0118011795 0.030347215 0.005940136 0.029353071 -0.018468924 0.0049391887 -0.015509615 0.035441827
-0.022042517 -0.022403646 0.028208112 0.003871621 0.03911048 0.028193748 0.0465565 -0.026751582

network_body.observation_encoder.processors.0.conv_layers.2.weight f4 [32, 16, 4, 4]
00000000: 36ed 14bd 15dc 4c3d 29b6 fcbc 0639 94bc
00000010: 36d5 68bc a086 5bbd f0b0 06bd 154d 373c
00000020: 3399 113d dfe6 bdbc 4fb4 25bd fe5a 55bd
00000030: ae20 c33c bb2c fc3c 2d5d c13d 0385 d53d
00000040: 5549 84bd dd28 7ebd 4495 be3c 1359 283d
00000050: 268a 893d e3af 643d 9392 a53d cdf1 373d
00000060: 5cb3 81bc 2d96 2dbd 8834 1fbd 9b47 80bc
00000070: 2f76 5cb7 b364 9b3d 7333 023b 8692 c7ba
00000080: 0752 023d 22ab 17bd 04e9 b13c dde6 7c3d
00000090: c92e 333d 456d 6b3c b611 1abd d38c 3a3d
000000a0: e5b2 d23d 42be fe3c be9d b5bc 5b24 13bd
000000b0: 460f f03a 86b2 32bd 5641 9dbc 2aac af3c
000000c0: 825f e53c e646 823d 4059 0dbd f23f 02bd
000000d0: e7ee 283c 2358 1fbd 159f 933d 8f6e 2e3d
000000e0: aec5 893d 4ada a93c 1637 833d 46b4 50bd
000000f0: d297 313c 2dc7 2bbc fea2 cabd d9b5 a63d
00000100: 467f 5ebc 2bac df3c 4bdc 583c fc2b 90bc
00000110: d6db 5fbb 4a69 ce3d 628d 693d 05d5 9dbd
00000120: c008 703d 465d 283d 497d 0e3d 87db 15bc
00000130: ac32 6dba 8f6b e4bd 4980 c8bb 0040 f83d
00000140: ecba ca3c 364c 4f3d 2160 60bd 1078 3a3d
00000150: b057 48bd 5324 a4bc 4abb 8f3d 343b 533d
00000160: dfc7 823d 2ac1 563c 1fa1 b93c d677 253d
00000170: 45db 10bd 5b40 753c 8ee3 c5bd ad8e dd3b
00000180: 8cf9 51bd 1126 b4bc ae3e 553d 1aa1 d73a
00000190: 9e7d 853d ff07 e13a 970b b3bb 83b3 c4bd
000001a0: 9d5e 20bd e52b 583c 27e4 b6bc 1fe8 2d3d
000001b0: 5cac 2b3c 4ac2 dd3c b9de 6a3d 5cd8 9f3d
000001c0: 635c 833d 2737 f3bc fbec 58bd 757c 103d
000001d0: e51c cbbc ac67 953b d3c9 043c e969 03bb
000001e0: 67ae 293d fd89 5839 9880 2bbb b627 c03d
000001f0: b226 473d b657 b03c ab8c 413d 5654 dabc
00000200: 8068 073d f797 e63c 1c4c df3b 2b39 353c
00000210: 819d 87bc 6791 963c 0daa 06bd 24e5 353d
00000220: f21e 823c 6006 353d d54e debc 4684 1abb
00000230: 69ff 953c 778c a1bb 8f45 fb3c 8792 053c
00000240: 1a2e 09bd 976e 18bd 3879 3c3d d411 fe39
00000250: 679b bd3d deae 9a3c 7c69 0cbd 416e 723d
00000260: 85d0 01bd e216 9ebc 9260 db3c d0b7 fcba
00000270: 0191 47bd 8c34 9abc 1f79 93bd e28e 90bd
00000280: 896e c8bb 2788 a4bc bdf8 0b3c 5d3b 9a3d
00000290: 3d65 18bd 1e83 583d aefa d43c 916e 0d3d
000002a0: c5d7 733d a7de b7bc d5ec d43c 9bc1 643d
000002b0: 0cd3 a8bd 6a32 903d f3c5 e13c 0a22 183d
000002c0: 137a 84bc 3cec 473d fb15 a5bc 7466 723d
000002d0: 84e0 e0bb 679c 943d 3f2d 733d 84e1 15bd
000002e0: a085 09bd e66a 913d 489c 883d ff60 6a3d
000002f0: 4b4d 08bd 4b5e b13c a6f1 82bd 23e4 b8bd
00000300: 8de1 973c bea5 87bc 658b 3c3d e221 94bd
00000310: d77c a0bc e49e 6bbd f768 bc3c 0ed0 67bc
00000320: 713f 5ebd 05e4 a4bc 3305 783d 1757 3b3d
00000330: 9822 013d 6175 e4bc 5d7c 60bd aa5a ab3d
00000340: f2ce 013d 7e5a 153b 850c edba dd73 1b3d
00000350: b2c1 64bc f278 9c3d 32e4 ab3c 288c 173d
00000360: cdae 81bd 5d57 d73c 6eba 273d 7df1 ae3b
00000370: 70eb 78bd 6d7f 02bd b8d3 19bb 4a47 5dbd
00000380: a25b bbbc 2d76 5dbd 7c34 42bc a320 e53c
00000390: ea9a 09bd a6e0 22bc dbe5 09bd 9052 b83c
000003a0: 3bed 2abd 105e 023c 40ea 00bd 36ab 2abd
000003b0: 6e9a 51bc dcc8 d63d c1f6 2c3d 9882 fc3c
000003c0: 7830 00bd 75d9 ca3c 9663 93bc 052c 413d
000003d0: b38b 2e3b c22a 193d f455 6fbc d5e3 5d3d
000003e0: b01e 503d d564 40bd 9c14 d8bc 8494 1a3d
000003f0: 748e 37bd 8810 093d 52b4 913c 99a6 23bd
-0.036359034 0.050014574 -0.03084858 -0.018093597 -0.01421099 -0.053595185 -0.032883584 0.011187811
0.035546493 -0.023181377 -0.04045516 -0.05208873 0.023819294 0.030783048 0.094416 0.104257606
-0.064592995 -0.06205069 0.023264535 0.041100573 0.06715803 0.0558318 0.080845974 0.044908334
-0.015832596 -0.042379547 -0.038868457 -0.015659144 -1.3140539e-05 0.07587566 0.0019867092 -0.0015226163
0.03181651 -0.03702844 0.021717556 0.061743606 0.04374579 0.014369314 -0.037614547 0.045544457
0.10288028 0.031096581 -0.022169944 -0.035923343 0.0018315099 -0.043627284 -0.019196194 0.021444399
0.027999643 0.06361179 -0.034508944 -0.031799264 0.010310865 -0.038902413 0.07208077 0.042585906
0.067271575 0.020733971 0.06406991 -0.050953172 0.010839419 -0.010484499 -0.098943695 0.081401534
-0.013580149 0.027303776 0.013236116 -0.017599098 -0.0034158132 0.10078676 0.0570196 -0.07706646
0.058602095 0.041104577 0.03478745 -0.009146578 -0.0009048383 -0.11153328 -0.0061188084 0.12121582
0.024747334 0.05060979 -0.054779176 0.045524657 -0.04891175 -0.020036852 0.070181444 0.051570132
0.06385779 0.013107577 0.022659836 0.040397488 -0.03536536 0.014968957 -0.09662543 0.006761393
-0.051263377 -0.021990808 0.05206173 0.001645121 0.065181 0.0017168521 -0.005464028 -0.09604552
-0.03915273 0.013194059 -0.022325588 0.042457696 0.010478105 0.027070183 0.05734131 0.07804939
0.06414106 -0.029689385 -0.052960377 0.03527494 -0.024794051 0.004559478 0.008104759 -0.002005214
0.04142609 0.0002065077 -0.0026169177 0.09382574 0.048620887 0.021526199 0.047253292 -0.026651543
0.033058643 0.028148634 0.006814493 0.011060993 -0.016554596 0.01837988 -0.032877017 0.04440798
0.015883896 0.044195533 -0.0271372 -0.0023577376 0.018310266 -0.004930075 0.030672817 0.008152611
-0.03349123 -0.03721484 0.04601404 0.00048459938 0.09258156 0.018882211 -0.034280285 0.059187178
-0.031693 -0.01929802 0.026779447 -0.0019280855 -0.04872227 -0.018823884 -0.072008364 -0.07058503
-0.0061166924 -0.020084454 0.008543191 0.07530854 -0.037205923 0.052859418 0.02599844 0.034529272
0.059531946 -0.022445036 0.025991837 0.0558487 -0.08243379 0.07040866 0.02756021 0.037141837
-0.01617149 0.048809275 -0.020152083 0.05917974 -0.006862702 0.07256394 0.059369322 -0.03659202
-0.0335747 0.071004674 0.06670433 0.05722141 -0.033276837 0.021651408 -0.06393747 -0.090278886
0.018540168 -0.016558524 0.046031374 -0.07233025 -0.019590778 -0.057524577 0.02299927 -0.014148725
-0.05425972 -0.02012826 0.060551833 0.045737352 0.03152713 -0.027888002 -0.054806102 0.08366902
0.0316915 0.0022789533 -0.0018085396 0.037952293 -0.013962196 0.07640256 0.020982835 0.036998898
-0.06332169 0.026286775 0.040949278 0.0053388462 -0.060771406 -0.031859804 -0.0023472141 -0.054023065
-0.022870842 -0.05406778 -0.011853334 0.027969664 -0.033595003 -0.009941256 -0.033666473 0.022500306
-0.041730147 0.007956997 -0.0314734 -0.041667186 -0.012793167 0.1048753 0.04222751 0.03082399
-0.031296223 0.024761895 -0.017991822 0.04716112 0.002663356 0.037394293 -0.014607895 0.054172356
0.050810516 -0.04697116 -0.026377015 0.03773929 -0.04481359 0.03346303 0.017786179 -0.0399538

network_body.observation_encoder.processors.0.dense.0.bias f4 [256]
00000000: 9d2f 563c 9907 cc3b 2770 74bb 2b7f 023c
00000010: 737e 05bb 97b9 4a3b acf2 bb3c ad18 0d3d
00000020: be2f 2e3c 99a7 903c 3788 f63b 1ee7 243c
00000030: 47b2 773c 8d8a 923b 5ce6 e93a 6550 f93a
00000040: 7943 883c 0811 9fbb c9c2 3a3c 410e b93c
00000050: f704 393c 3dca 403c 749c 203c 92c9 a33b
00000060: e2a2 793c 0f68 983b 4042 683c 0f0f af3c
00000070: cb57 933c 4f9c 843c 4c90 493c b40b 713c
00000080: cc96 9a3b e622 413c 6a89 ae3c 531e f13c
00000090: aeda 01bc fb32 833c 74f9 473c 1bab a43b
000000a0: 6d3b 813a c870 8abb 8e88 ea3c 1e6d 44bb
000000b0: 75a9 ab3c e200 d83c a30e 83bc cab3 703c
000000c0: 1bdb a03c 62e0 093c b197 393b c284 cd3b
000000d0: 554f 2e3c 66ca bf3b 23f8 9b3c f1ef 093b
000000e0: b178 773b 8415 9d3c faca fc3b b8c0 d73c
000000f0: d1ec b33b 0c3c bf3b e8c0 2c3c 753a a83c
00000100: b396 103c de6b a13b 42f5 a63c 657c 443c
00000110: 985b 763c 1c9f 2c3c 5617 b03c eab0 53bc
00000120: bf61 2c3c 2de8 d0bb cb2c c5bc 3a6c a53c
00000130: a7a2 143c acf5 883b a938 8d3b c2cd 603c
00000140: 81b8 a03c a9b1 533c 9b06 853b 8dea f73b
00000150: f074 983c e86e 8f3c ba3f 7e3c f5de ad3c
00000160: e73d ea3c 55cb 723c dd2d 1f3c 770c af3c
00000170: a1d4 bd3c 3cf7 0cba 98d3 53bc 4a48 413c
00000180: 5b7b 8cbb 5dcc 6a3c dc7f eebb e59e ad3c
00000190: 7222 653c 0b95 d53c 6b71 053c c1dd 953b
000001a0: 9902 a83b 899f 1abb d0e1 5cbc a1e3 873c
000001b0: ed1b 523c af1a e03c 7b3e 433b ba6d caba
000001c0: 06b1 ee3a 1511 553c ecee f13b b113 ae3c
000001d0: 7574 37bb 3682 21bc d0f2 1a3d 4e0a f63c
000001e0: 5622 ed3c c675 0e3c 1b66 1b3c 2183 463c
000001f0: 33e9 23bc c254 ca3c fde4 303c 2c62 aebb
00000200: 16bc ea3b 54de 23ba ae1f 6c3c a3da af3b
00000210: b671 8e3c ca83 3c3c 439a 983c 85ec ff3b
00000220: aff0 753c 3790 fd3c d6fb f8bb 0892 213b
00000230: 3bdd a93c cde5 d83c 4aff c73c 6524 8abb
00000240: 3ffc 0e3b ff60 8dba f9fb ba3b 0035 7a3c
00000250: a2af 003c 399e 833b 6c33 1d3c d2a9 343c
00000260: f8b8 ea3b d05d b13c bb64 453c 0bb8 6a3c
00000270: 3d28 c83c c417 dc3c 88fe 88bc e85b 093c
00000280: 8692 a33c d7f3 523c 8802 833c 0d40 ab3b
00000290: c856 813c ef56 803c febf b13c 901c bd3c
000002a0: c029 333a 3d44 913b 1760 b13c 5f75 f93b
000002b0: 16fc d83b 32d9 98ba 7deb 813c 5d53 3a3c
000002c0: 4790 8f3b e943 593c c679 94ba 236a 613c
000002d0: 3cd2 013c 6537 9c3c 5d30 3e3c dd49 043d
000002e0: c1bc bf3c 4908 a63c 0d00 d3ba 83f2 b43b
000002f0: a1a1 993c fb6b 963a 07f8 783b 11c5 433c
00000300: 590c ec3c fe45 863c fd8a 5e3c 0ee9 073c
00000310: 5b09 543c 701b 133c 36f4 653a 3235 b5bb
00000320: 052f 9b3c f201 223c 650c e53c e48e c83c
00000330: 6e7b 6d3c 502e af3c 67a2 053d 100e e93c
00000340: cabb 013d e016 6aba 742f 053c 323e f93b
00000350: f576 a93c 7383 ab3c e286 653c a721 ce3c
00000360: 7064 f8bb 7fbd 7f3c 97c3 0bbc b7d0 a23c
00000370: 8d52 10bc f71f 8e3b 6b7b a83c aff8 a03c
00000380: a9e7 e63c 7f62 b83c eed7 3c3c 2d16 3cbb
00000390: ecde a73b 22dc 4b3c 721b e03c 6d8a 0d3c
000003a0: 243d b63c 1293 213c c568 c73b eb89 683b
000003b0: c309 7f3c 5563 523b 8437 1d3c f78d 383c
000003c0: 0e2a b4ba fe2b 20bc 22ce e8bb 0571 b73c
000003d0: f4cd d33c 85a8 283c c03a 403c 6a93 e13b
000003e0: 0ee1 b93b 56a6 7c3b fdd3 7e3b c8fd 243b
000003f0: 96c1 9f3c aa5c d1bb 7bdd 443c 137b 18bc
0.013072875 0.0062264916 -0.0037298293 0.0079648895 -0.002036956 0.0030933374 0.022942863 0.03444736
0.0106315 0.017658042 0.0075235623 0.010064868 0.015118188 0.004472083 0.0017845142 0.0019021152
0.016633736 -0.004854325 0.011398979 0.022589805 0.011292688 0.011766967 0.009802926 0.0049983943
0.015236588 0.0046510766 0.0141759515 0.021369485 0.017986199 0.016187815 0.012302469 0.014712263
0.0047176834 0.011788106 0.021305759 0.029433405 -0.007925672 0.01601552 0.01220547 0.00502528
0.0009859629 -0.0042248704 0.028629567 -0.0029972265 0.020954827 0.026367608 -0.01599819 0.014691303
0.019635728 0.008415313 0.0028319175 0.0062719295 0.010639031 0.005852985 0.01903922 0.0021047557
0.0037761147 0.019175299 0.0077146264 0.026337013 0.005490877 0.0058360156 0.010544039 0.020535687
0.008824992 0.004926189 0.02038062 0.011992549 0.015036486 0.0105359815 0.021495502 -0.012920598
0.010521351 -0.0063753338 -0.02406921 0.020193208 0.0090719825 0.004179677 0.004309733 0.0137209315
0.019619228 0.012920775 0.0040596253 0.0075658024 0.018610448 0.017508939 0.015518123 0.021224478
0.02859397 0.014818986 0.0097155245 0.021368248 0.023172678 -0.0005377417 -0.012928866 0.01179702
-0.004287166 0.014330951 -0.0072784256 0.02119393 0.013985263 0.026072046 0.008144717 0.0045735543
0.005127263 -0.0023593626 -0.013481572 0.016588034 0.012824041 0.027356474 0.002979188 -0.0015444078
0.0018210716 0.013004561 0.007383218 0.021249624 -0.0027992998 -0.009857705 0.03782922 0.03003421
0.028947037 0.008695072 0.009484793 0.0121162245 -0.0100043295 0.024698619 0.010796783 -0.0053217616
0.007163535 -0.0006251086 0.01441185 0.0053666397 0.017388206 0.01150603 0.018628245 0.0078101777
0.015010997 0.030952556 -0.0075983806 0.0024653692 0.020735374 0.026476765 0.024413723 -0.0042157643
0.002181783 -0.0010786353 0.005706307 0.015271425 0.007854374 0.0040166643 0.009594779 0.011026816
0.0071631633 0.021651179 0.012047942 0.014326106 0.02443325 0.026866801 -0.016722932 0.008383729
0.019967329 0.012875519 0.015992418 0.0052261413 0.01578845 0.015666453 0.021697994 0.023084909
0.00068345293 0.0044331835 0.021652265 0.0076128687 0.006621848 -0.0011661409 0.01585936 0.011372414
0.004381213 0.01326082 -0.0011327795 0.013758215 0.007923659 0.019069383 0.01160821 0.032297004
0.023405435 0.020267623 -0.0016098038 0.0055220737 0.018753828 0.0011476272 0.0037989633 0.01194884
0.028814482 0.016390797 0.013582942 0.008295311 0.012941684 0.00897871 0.0008772047 -0.005530023
0.01894332 0.009888159 0.027960012 0.024482198 0.01449476 0.021384388 0.032625582 0.028449088
0.03167323 -0.00089298 0.0081289895 0.007606291 0.020686606 0.020936703 0.014009209 0.025162531
-0.0075803325 0.015609144 -0.008530519 0.019874914 -0.008808744 0.0043373066 0.020566663 0.019649832
0.028186636 0.022507904 0.011526091 -0.0028699741 0.00512301 0.0124426205 0.027356837 0.00863896
0.022245951 0.009861724 0.0060854875 0.0035482596 0.015566292 0.0032102664 0.0095957555 0.011264316
-0.0013745443 -0.009776114 -0.007104651 0.02239276 0.025855042 0.010294084 0.011732757 0.006884028
0.0056725806 0.0038551292 0.003888368 0.002517568 0.019501489 -0.0063892202 0.012015696 -0.009306687

network_body.observation_encoder.processors.0.dense.0.weight f4 [256, 128]
00000000: 68e9 8c3d 4069 d33d 6a4a 66bd 3690 0c3e
00000010: 3d3f 6bbc ed29 983e 1735 dbbd 5cad 9e3d
00000020: fde4 0dbe eee1 efbc 6cc2 b43d 9a9d 263d
00000030: 64e0 90bc b030 0bbe 70bd 5b3e 6094 673e
00000040: fa79 dbbc 6ccc 12be bb86 953e e0ae a73d
00000050: 0a13 ef3d bc68 e83c 6539 fd3d a5af cabd
00000060: 8be9 fd3c 2e4c 75bc 5ecb 3ebd 3ed3 9dbd
00000070: d2cf 8d3d ee4b b9bd 9944 053e 3180 e03d
00000080: d749 1dbe 938d 5bbe 563d 633e aeaf ec3c
00000090: b8aa 02bd 81bc 663d c24b 2e3e e6f8 263d
000000a0: 8b63 74be 3a5c 3a3e e65c 0ebd 6f09 d63d
000000b0: 213a b43c 0c03 0fbe f4fc 6dbd 0fc0 02be
000000c0: c7ac 003c 01da a03d d4d8 173d 0cfd f13d
000000d0: 9054 bc3d 0ebd dcbd 3f47 b4bd 6c03 d5bd
000000e0: 07dd 86b9 bed9 46be 124b 7dbd 434d 05bd
000000f0: 9b98 323c 4f33 3d3d 3232 cebd 6764 4a3e
00000100: 8bad 533c 6e45 0a3d a9dc 503e 5d7c 7b3d
00000110: e2b4 f13d 7861 52bd 4d38 d23d e913 e0bd
00000120: 403e a9bd 0af0 cbbd 234b bc3d 6efb 27be
00000130: 720f e1bd 8143 d7bd 1077 5d3d 8a76 98bd
00000140: 9875 e8bc 38f9 513d c076 09bd 5ed3 f6bc
00000150: 68da 653d 53dd 2f3e 213d 6d3b 83ee 1d3e
00000160: 16ad 0e3d ee3f 303e 1653 9ebd 5c98 c53c
00000170: 907a c33d 8ff9 a33d 638d 28be fc4a ce3c
00000180: 61eb 69bd 0ca7 8c3c 62c0 0b3e a831 193e
00000190: 0e9f 5ebe 3f33 da3d b6ee d6bd ff97 26be
000001a0: 21c6 ecbd b31f 123e c8d9 353c fe8a b03d
000001b0: 0cb4 e0bd f2c6 5fbd 2164 e2bd 45f1 0abe
000001c0: 6c20 f83c 6284 623d ffa4 2cbd 710c 06bc
000001d0: 5280 673d 73a1 543e 4823 66bc 0b33 373c
000001e0: 9b63 4cbc d28a 98bd 2f50 99bd 859e bfbb
000001f0: 0a7d 013e c5cd 523d 1569 263e fcfd 13bd
00000200: 8970 d1bd 1d9a 50bd 85ff 5e3d 8552 a83d
00000210: 73b4 d43d b178 89bb a4d1 603d 7f10 353e
00000220: 629a 433d 939a d53d ca8c 7ebe 9aff 0a3e
00000230: 00e5 19be bada 653e e725 033e 37ef f8bd
00000240: 8209 5bbd 06da 47be 6159 17be f3dd a83d
00000250: a1c6 83be bc3a cdbd d2bd 75bd 7ff1 5e3d
00000260: dfe1 2b3e 628b ea3d 2dfa 7c3e 2cec b2bd
00000270: 837c bc3e 6a34 f73d 186e 1d3e 9bd7 b73d
00000280: 7054 d73d 742b 06bb 7353 403e 79c8 f3bd
00000290: 1041 40be 9fc9 bbbd ef44 69bd 4c3f 9c3d
000002a0: d3c1 823e 5c71 893e 5535 f7bd 1847 83bd
000002b0: 77d2 1d3e f719 e9bd 9b4b f1bd ac0b 313e
000002c0: c240 7b3c 5129 a73c 5235 b6bd d60d 2bbe
000002d0: b831 a9be feaf 643d c1d3 2abe 3e94 59bd
000002e0: 0b99 71bc f601 9dbe b41e bb3d ba88 173e
000002f0: 3dfe eabc dd91 7cbd ef6b 3abe e9a6 8e3e
00000300: 5be7 69bb 9925 5e3e babc 683e 48b8 d5bd
00000310: e3f3 423d b988 48bd cc55 3f3d 2874 623d
00000320: 9256 3f3e 9d94 b1bd 4095 0bbe 7629 1c3e
00000330: f475 103e 1019 12bd 19a5 5cbe 310a 80bd
00000340: ec85 19bd 18f4 353e c258 7bbd 99a2 853e
00000350: cb05 f2bd 70dc 973d 4c63 3d3e cc15 18be
00000360: 011c 743e 71b0 db3d 2e95 1ebd 9fad 39bd
00000370: e694 5d3d c0ad bc3c 894c 653b dc00 21be
00000380: 4f1b ba3d a064 3abe 100d f73d e891 71be
00000390: 8fd7 f3bb c11e a33e 97f6 d6bc a998 553e
000003a0: 1464 733d 5acf ae3a e377 ca3d bc20 d83d
000003b0: 3478 5a3d 22aa 4abc 204f 32bd d73d 26be
000003c0: 731e e73d 7d85 9b3d 24f4 41bd 1bb8 513e
000003d0: adb2 473e 8fc9 ff3c 0a82 a13c 734e 05be
000003e0: f4b4 68be 74ef e3bd a3c2 5b3e 4a03 1b3d
000003f0: db51 36be b60e 91be 2baf a53d 70d5 e0bd
0.06880456 0.10322809 -0.05622331 0.13726887 -0.014358339 0.29719487 -0.107034855 0.077479094
-0.13856883 -0.029282536 0.088261455 0.040677644 -0.017685123 -0.13592792 0.21458983 0.22615194
-0.026791561 -0.14335793 0.29204354 0.08187652 0.11673553 0.028370254 0.12364463 -0.09896783
0.030995151 -0.014971776 -0.046580665 -0.07706307 0.06924404 -0.090476856 0.13014449 0.109619506
-0.15360199 -0.21440725 0.22191367 0.028892364 -0.03190109 0.056332115 0.17021087 0.04076471
-0.23866098 0.18199244 -0.034756564 0.10451018 0.022000374 -0.13966006 -0.058102563 -0.12768577
0.007853693 0.07854081 0.037072018 0.11815843 0.091958165 -0.10778247 -0.088026516 -0.10401043
-0.0002572315 -0.19419 -0.06183917 -0.032544386 0.010900642 0.04619151 -0.10068168 0.19764863
0.012919794 0.03375762 0.20396675 0.0613979 0.11802079 -0.051362485 0.10264645 -0.109412976
-0.08263826 -0.09957893 0.09194019 -0.16404507 -0.10989274 -0.10510922 0.054068625 -0.074444845
-0.028376386 0.051263064 -0.033560514 -0.030130085 0.05611649 0.17174272 0.0036199766 0.15423016
0.034833036 0.17211887 -0.07730691 0.024120502 0.09544861 0.08006584 -0.16460185 0.02518224
-0.05710924 0.017169498 0.13647607 0.14960349 -0.21740362 0.10654306 -0.10494749 -0.1626892
-0.115612276 0.14269905 0.011099286 0.08620261 -0.10971841 -0.05463309 -0.11054254 -0.135686
0.030288897 0.05530203 -0.04214954 -0.008181677 0.05651886 0.20764713 -0.014046498 0.011181603
-0.01247492 -0.07448353 -0.07485997 -0.0058477544 0.12645355 0.05146577 0.16251023 -0.03613089
-0.102265425 -0.050928224 0.0544429 0.08218864 0.103859805 -0.0041952957 0.05488743 0.17682074
0.047754653 0.10429873 -0.24858394 0.13574067 -0.15028763 0.22446719 0.12807427 -0.121550016
-0.053475864 -0.19516763 -0.14780189 0.082454585 -0.2573748 -0.10020968 -0.05999548 0.054429527
0.16785382 0.114523664 0.2470481 -0.087364525 0.36813745 0.12070544 0.15374029 0.0897667
0.10514152 -0.0020472677 0.18781833 -0.119034715 -0.1877482 -0.091693155 -0.056950506 0.076292604
0.255385 0.268443 -0.12070719 -0.064100444 0.15412317 -0.113819055 -0.11781999 0.17289609
0.015335264 0.020405443 -0.08896889 -0.16704497 -0.33045745 0.0558319 -0.1668234 -0.05311989
-0.014745961 -0.3066556 0.091367155 0.14798251 -0.028685683 -0.061662544 -0.18205236 0.27861717
-0.0035690877 0.2169403 0.22728243 -0.104355395 0.04759587 -0.048958514 0.04671268 0.055286556
0.18685368 -0.08670924 -0.13631153 0.15250191 0.14107496 -0.035668433 -0.21547355 -0.06251944
-0.037481233 0.17768896 -0.061363943 0.26100615 -0.11817511 0.07415092 0.1849491 -0.14852065
0.23838808 0.10727013 -0.038716488 -0.045331594 0.05409708 0.02303207 0.0034988245 -0.15722984
0.0908724 -0.18202448 0.12063038 -0.23590815 -0.007441468 0.318594 -0.02624063 0.20859016
0.059421614 0.0013336942 0.09886148 0.105531186 0.05333729 -0.012369664 -0.04353249 -0.16234528
0.112851046 0.0759382 -0.04735197 0.20480387 0.19501753 0.03122404 0.019715328 -0.13018207
-0.22725278 -0.111296564 0.21460967 0.037844934 -0.17804663 -0.28331536 0.08090051 -0.1097821
